saved_models/cnn.ckpt (torch, 489261 bytes, 25 tensors)

model.conv1.weight f4 [16, 18, 3, 3]
0	0x3d08a95b	0.033364635
1	0x3d026214	0.031831816
2	0xba161591	-0.00057252595
3	0x3d0a3c5f	0.03374898
4	0x3c1cec47	0.009577817
5	0x3c922777	0.017841084
6	0xbb7781a4	-0.003776648
7	0x3d09d6f2	0.033652253
8	0x3d17bfe4	0.037048236
9	0xbcc4e509	-0.024034994
10	0x3cf45ffa	0.029830921
11	0x3c27533e	0.010212718
12	0x3cbcd189	0.023049133
13	0x3c850a17	0.016240163
14	0x3cc57419	0.024103211
15	0x3b423ca2	0.002963819
16	0x3d1b8044	0.03796412
17	0x3c06a23c	0.008217391
18	0xbc8d039b	-0.017213633
19	0x3b6ebb5c	0.0036427593
20	0xbc5928ba	-0.013254339
21	0xbb9e281b	-0.0048265583
22	0xbc63bec4	-0.013900463
23	0x3c958f85	0.018256912
24	0xbc98cee2	-0.018653337
25	0xbc7787e9	-0.015108087
26	0xbb4d7d29	-0.003135512
27	0x3cb80f0e	0.022468116
28	0x3d2acc90	0.041698992
29	0x3c5c7322	0.013455184
30	0x3d68c621	0.056829575
31	0x3bb2be30	0.005454801
32	0x3d626e57	0.05528101
33	0x3d106726	0.03525462
34	0x3c54ae18	0.01298096
35	0x3d47b199	0.048753355
36	0x3d163a0a	0.036676444
37	0x3d38ed35	0.045148093
38	0x3c62553c	0.013814267
39	0x3c9b2d83	0.0189426
40	0x3cddc423	0.027071064
41	0x3b708fd0	0.0036706813
42	0x3d01c5c1	0.031682733
43	0x3d2543ca	0.04034785
44	0x3cc8e3a6	0.024522614
45	0x3ba90e38	0.0051591657
46	0x3d0abdcf	0.03387242
47	0x3c9501ec	0.018189393
48	0x3cfb35dd	0.030665332
49	0xb94f47c7	-0.00019767797
50	0xbc89f69a	-0.016841222
51	0xba78c4e7	-0.000948979
52	0xbc60b90e	-0.0137159955
53	0x3cf11dc6	0.029433142
54	0x3c99dd02	0.018782143
55	0x3c62ccc1	0.013842762
56	0x3bd48e0d	0.0064866603
57	0x3b37be03	0.002803684
58	0x3c9572c2	0.018243197
59	0xbd15f009	-0.03660587
60	0x3c4240e5	0.011856292
61	0xbcd662ae	-0.026170101
62	0x3b315cab	0.002706329
63	0xbcc5eb63	-0.024160093
64	0xb99b0ace	-0.00029571954
65	0xbca75f64	-0.020431228
66	0x3ce5656f	0.028002469
67	0xbce94739	-0.028476344
68	0xbcf93c6d	-0.030424321
69	0xbcd87fd0	-0.026428133
70	0x3cf68fe7	0.030097915
71	0x3bb58f78	0.0055407844
72	0x3d31205b	0.043243747
73	0x3a39f6a2	0.0007093941
74	0xbbde619c	-0.0067865383
75	0x3c29c299	0.010361337
76	0x3c0f7ac7	0.0087573
77	0x3cf189e4	0.029484697
78	0x3d1b0403	0.037845623
79	0x3d392f6e	0.045211248
80	0x3c3c2a2b	0.011484663
81	0xbcea1c6d	-0.028578008
82	0x3a8174a0	0.0009876676
83	0xbcd1923b	-0.025582423
84	0x3bf35da8	0.007426936
85	0xbc85554d	-0.016276026
86	0x3b446bc0	0.002997145
87	0xbce4880e	-0.027896907
88	0xbcbd3783	-0.02309776
89	0xbb8dd1e0	-0.0043279976
90	0x3c77de98	0.015128754
91	0xbc6f34d4	-0.014599998
92	0x3c524060	0.012832731
93	0x3cbcb6f5	0.02303646
94	0xbd2f9595	-0.042867262
95	0xbd1f498c	-0.0388885
96	0x3d140a3b	0.03614257
97	0xbcc5efaf	-0.024162142
98	0xbcee8afe	-0.029119011
99	0xbda7fc86	-0.08202462
100	0xbd8fa5cb	-0.070140444
101	0xbd10c713	-0.035346102
102	0xbd4aa25d	-0.049471248
103	0xbd9fc4c5	-0.07801203
104	0xbd4130e2	-0.04716576
105	0xbd91e154	-0.07123056
106	0xbda86601	-0.08222581
107	0xbd933e4d	-0.07189617
108	0x3ab70673	0.0013963714
109	0x3b6eff6b	0.003646816
110	0x3d06351b	0.03276549
111	0x3cfac3d4	0.030610956
112	0x3cf6e861	0.030140104
113	0xbad628c0	-0.0016339049
114	0x3c7e29b1	0.01551287
115	0x3c9fb59e	0.019495782
116	0x3ccb09be	0.024784919
117	0xbac270d8	-0.0014834655
118	0x3c0e5b99	0.008688831
119	0x3a10d85e	0.0005525405
120	0x3ce8ae4e	0.028403427
121	0x3c558bbd	0.0130338045
122	0x3c8813a9	0.016610937
123	0x3c3b274c	0.011422943
124	0x3bb8644d	0.005627191
125	0x3b7f26b8	0.003893299
126	0xbd110a84	-0.03541042
127	0xbd4603db	-0.04834352
128	0xbb70142e	-0.0036633122
129	0xbcd27939	-0.02569257
130	0xbc2ed326	-0.010670459
131	0xbce197ab	-0.027538141
132	0xbd42a946	-0.047524713
133	0xbca22846	-0.019794594
134	0xbd262e75	-0.04057165
135	0x3c6f8340	0.014618695
136	0xbaf91171	-0.001900239
137	0xbc3857cb	-0.0112514
138	0x3d07ca74	0.03315206
139	0x3c1d5581	0.009602905
140	0x3c839f97	0.01606731
141	0x3bf7282f	0.007542632
142	0x3ce45ca1	0.0278762
143	0xbc0540e5	-0.008133148
144	0x3b8d10db	0.004304988
145	0x3c569540	0.013097107
146	0x3c890caf	0.01672968
147	0x3cdf4469	0.0272543
148	0x3cb5155f	0.022104917
149	0x3c19960d	0.009374154
150	0x3ca16eeb	0.01970621
151	0x3be2f99d	0.006926729
152	0x3c2c9e80	0.010535836
153	0x3cb526c4	0.022113211
154	0x3d830793	0.06397929
155	0x3c91ad9a	0.017782975
156	0x3d7e5cd5	0.06210025
157	0x3d559bf6	0.05215069
158	0x3d51517c	0.0511031
159	0x3d123548	0.035695344
160	0x3d9071ae	0.07052933
161	0x3d4a20a7	0.049347546
162	0xbc62a466	-0.013833141
163	0xbd13bd92	-0.03606946
164	0xbc200602	-0.009767057
165	0xbc54b633	-0.012982893
166	0xbcc36862	-0.023853485
167	0x3b84ddec	0.0040547755
168	0xbc6c2384	-0.014412764
169	0xbccfa215	-0.025345841
170	0xbc8bdfb2	-0.01707444
171	0xbc964e98	-0.018348023
172	0xbc1b7969	-0.009489396
173	0xbcae2551	-0.021258028
174	0xbca21d2c	-0.0197893
175	0xbcabc3ce	-0.02096739
176	0xbcc3ed7d	-0.023916954
177	0xbc07c133	-0.008285808
178	0x3c10872d	0.008821291
179	0xbc8a08a3	-0.016849821
180	0x3b919b1c	0.0044435393
181	0x3c4973c2	0.012295665
182	0xbb672a34	-0.0035272958
183	0xbc43dbfd	-0.011954305
184	0x3c890bb1	0.016729208
185	0x3c5af68c	0.013364445
186	0x3c1850fc	0.009296652
187	0xbbdcfad8	-0.00674377
188	0xbc4c92c2	-0.012486162
189	0x3d0b81a9	0.0340592
190	0x3ce456b7	0.02787338
191	0x3c8c0197	0.017090602
192	0x3d4f070a	0.050543822
193	0x3d734a98	0.05939731
194	0x3cc74dc4	0.024329074
195	0x3cafcaaa	0.021458942
196	0x3cfefd6b	0.031126698
197	0x3cb11807	0.021617902
198	0x3b64affe	0.0034894939
199	0x3af1069a	0.0018388808
200	0xbd52e5da	-0.051488735
201	0xbce22bfc	-0.027608864
202	0x3bfd7825	0.0077352696
203	0xbcc87cd9	-0.024473595
204	0xbd0fa1e2	-0.035066493
205	0xbd914454	-0.07093111
206	0xbd96075e	-0.07325624
207	0x3c14d8f0	0.009084925
208	0x3cccf9ac	0.025021397
209	0x3d08e487	0.033421066
210	0x3d12795f	0.03576028
211	0x3d2bec25	0.04197325
212	0xbc1feb84	-0.009760741
213	0xbc3ac2cc	-0.011398982
214	0xbc92b805	-0.017910013
215	0x3cc00206	0.023438465
216	0x3c761988	0.015020736
217	0x3b63d1b6	0.0034762449
218	0x3d0afffd	0.033935536
219	0xbba95dc6	-0.0051686494
220	0xbc1f2bca	-0.00971503
221	0x3d45a83a	0.048256136
222	0xbbd42a70	-0.0064747855
223	0x3c2dfd00	0.010619402
224	0xbc390231	-0.011292026
225	0x3d10f4b2	0.03538961
226	0x3d2058c4	0.039147153
227	0x3cc524e4	0.024065442
228	0xbc4082a7	-0.0117499
229	0xbcbe1c23	-0.023206776
230	0xbc913653	-0.0177261
231	0x3d2edaa3	0.042688977
232	0x3d08f1dc	0.03343378
233	0x3d435cc0	0.047695875
234	0x3c160fb3	0.009159016
235	0x3c1f3e4c	0.009719443
236	0x3c732fd4	0.014842946
237	0xbbffb881	-0.007803977
238	0xbaba02b2	-0.0014191477
239	0x3c0796d6	0.008275708
240	0x3b87c7b9	0.004143682
241	0xb9d1db0f	-0.00040026798
242	0x3c8223c8	0.015886202
243	0xbcc1b16f	-0.023644177
244	0xbc5264d8	-0.012841426
245	0xbc9f0d12	-0.019415412
246	0xbcbbf634	-0.022944547
247	0x3b0f012e	0.0021820772
248	0xbbdb570b	-0.006693726
249	0x3b075709	0.0020651242
250	0xbc734955	-0.014849027
251	0xbc975f27	-0.01847799
252	0xbd34a72b	-0.044104736
253	0xbd6a8be4	-0.057262316
254	0xbd445122	-0.047928937
255	0xbdad4969	-0.084612675

model.conv1.bias f4 [16]
0	0xbbe96333	-0.007122421
1	0xbc6c08d2	-0.0144064
2	0xb8c9767b	-9.6064956e-05
3	0xbc07452c	-0.008256238
4	0x3c9f93be	0.019479629
5	0x3cd24b9d	0.02567082
6	0x3d845941	0.06462336
7	0xbc2e5735	-0.010640909
8	0xbcda9f7e	-0.02668738
9	0xbbbe6550	-0.0058104172
10	0x3cf66f9a	0.030082513
11	0x3d5220b8	0.051300734
12	0xbd05701c	-0.03257762
13	0x3c6c32fb	0.014416452
14	0x3c4d3187	0.012524015
15	0xbcbb90ac	-0.022896133

model.fc1.weight f4 [16, 2304]
0	0xbc3c20ad	-0.0114824
1	0xbbd36eb0	-0.006452404
2	0xbb38f9a5	-0.0028224972
3	0xbb1405b7	-0.0022586414
4	0xbaa8de61	-0.0012883657
5	0x3ba0dce2	0.004909144
6	0x3bbef4b0	0.005827509
7	0x39ad2e87	0.00033031797
8	0x3a37992c	0.00070037204
9	0x3b9a5425	0.004709738
10	0x3bd10971	0.0063792993
11	0x3ba9cd1e	0.0051819226
12	0xbc60dd04	-0.013724569
13	0xbc2eea09	-0.0106759155
14	0xbc30739b	-0.01076975
15	0xbc277fc6	-0.010223335
16	0xbb6264ef	-0.0034545024
17	0x3b586fd6	0.0033025644
18	0xbb23db6d	-0.0025002614
19	0xbbccd973	-0.006251508
20	0xbb1d62f5	-0.0024015282
21	0x39c4d250	0.00037540728
22	0xba721d29	-0.00092359126
23	0xbb99fc07	-0.0046992335
24	0xbc8f444d	-0.017488623
25	0xbc395dfa	-0.01131391
26	0xbbe6d0d1	-0.007043936
27	0xbc1a1404	-0.009404186
28	0xbb98bb15	-0.004660974
29	0xbbd68473	-0.006546551
30	0xbc088b2e	-0.008333964
31	0xbbee950a	-0.0072809504
32	0xbbf52f35	-0.007482434
33	0xbbea4c35	-0.007150198
34	0xbbd3e75d	-0.0064667896
35	0xbbba62db	-0.005688054
36	0xbc6df4a4	-0.014523659
37	0xbbc22ed1	-0.005925991
38	0xbb66a02e	-0.003519069
39	0xbbaf4f89	-0.0053500575
40	0xbc0f02e0	-0.008728713
41	0xbbc2bef6	-0.0059431745
42	0xbb167c61	-0.002296232
43	0xbb1add8b	-0.0023630585
44	0xbbd0efcf	-0.0063762437
45	0xbc24583a	-0.0100308005
46	0xbbfe6041	-0.007762939
47	0xba80b482	-0.000981942
48	0xbc7c0f22	-0.015384467
49	0xbbda22be	-0.0066569736
50	0xba24fe61	-0.0006294009
51	0xbaae2b57	-0.0013288063
52	0xbc1bddf1	-0.009513364
53	0xbbcf7390	-0.006330915
54	0xba07a14c	-0.00051738764
55	0xbb0eda50	-0.0021797605
56	0xba46b63e	-0.0007580257
57	0xbb576f54	-0.0032872753
58	0xbbba15cd	-0.0056788684
59	0xb9efaf7e	-0.00045716384
60	0xbc1ccb92	-0.009570019
61	0xbc1c4150	-0.009537056
62	0xba18d9ff	-0.0005830824
63	0x3c01cedf	0.007922857
64	0xb84ddbee	-4.9080634e-05
65	0xbadaf51e	-0.0016705131
66	0x3aa21067	0.0012364507
67	0xbb16e3c1	-0.0023023936
68	0xbb9a32af	-0.004705749
69	0xbb858a05	-0.004075291
70	0xb9d92909	-0.0004142004
71	0xbb14677b	-0.0022644687
72	0xbbe4c80b	-0.006981855
73	0xbc0de76b	-0.008661131
74	0x3ac96e20	0.0015367903
75	0x3bea2237	0.007145192
76	0x3b158fbf	0.0022821275
77	0x3a9169e1	0.0011094176
78	0x3a97d7b3	0.0011584669
79	0xbb3f3bc2	-0.0029179906
80	0xbb46cec5	-0.0030335647
81	0xbba08137	-0.004898216
82	0xbb93cb2e	-0.004510305
83	0xbbd3488b	-0.006447857
84	0xbc3bfd7f	-0.011474012
85	0xbc1f9b16	-0.009741565
86	0xbb0308b9	-0.0019994213
87	0xba89f0a4	-0.0010523987
88	0xba8fd6ea	-0.0010974084
89	0x3a8d60cf	0.0010786297
90	0x3b8e811d	0.0043488876
91	0x3b2f86fe	0.0026783342
92	0x3b1d8f4a	0.0024041706
93	0xbb611d47	-0.0034349726
94	0xbc3f2d71	-0.011668549
95	0xbc2e7dfe	-0.010650156
96	0xbc8c47c4	-0.017124064
97	0xbc72cd20	-0.014819413
98	0xbbf2edf5	-0.0074136206
99	0xbba69f74	-0.0050849263
100	0xbbae37ac	-0.005316695
101	0xbaca45ec	-0.0015432215
102	0xbabae999	-0.0014260291
103	0xbb9a634d	-0.0047115446
104	0xbbe77086	-0.0070629744
105	0xbc14d25e	-0.009083359
106	0xbc1c3a23	-0.009535345
107	0xbc2dbfbb	-0.010604794
108	0xbbc7c883	-0.006096901
109	0xbc1fd017	-0.009754202
110	0xbc09c76a	-0.00840936
111	0xba2574b6	-0.0006311642
112	0xbb41832f	-0.0029527654
113	0xba1923b4	-0.0005841807
114	0xbb36a69c	-0.0027870303
115	0xbc4a3a5b	-0.012343015
116	0xbc76dd00	-0.015067339
117	0xbc29a802	-0.010354998
118	0xbc06f305	-0.008236651
119	0xbc56e82d	-0.013116878
120	0x3ad50e26	0.0016254827
121	0xbbfcecbe	-0.0077186516
122	0xbc3989cc	-0.011324357
123	0xbb32c739	-0.002727939
124	0x3b2d9214	0.0026484774
125	0xb860e753	-5.36212e-05
126	0xbb9f4a91	-0.004861184
127	0xbc10ddca	-0.008841941
128	0xbc022c4f	-0.007945134
129	0xbb31ae4c	-0.0027111946
130	0xbb8c3adf	-0.004279479
131	0xbc33ca4c	-0.010973524
132	0x3bb0ff3f	0.0054015215
133	0xbbfc539b	-0.0077003962
134	0xbc8ee446	-0.017442834
135	0xbbfdc0ee	-0.0077439463
136	0x3be55b86	0.006999436
137	0x3b818ace	0.0039533144
138	0xbb84a04b	-0.0040474287
139	0x399d3c98	0.0002999052
140	0x3b835626	0.0040080724
141	0x3bf6f11f	0.007536068
142	0x3b25a2fe	0.0025274153
143	0xbbc3ba2c	-0.005973121
144	0x3bfded85	0.007749262
145	0x3b831518	0.0040003173
146	0xbb8a68c8	-0.0042239167
147	0xbb9e4782	-0.0048303017
148	0x3ac6b9c6	0.0015161566
149	0x3bcb9de8	0.0062138923
150	0x3aa8d1d1	0.0012879913
151	0xbbae71ff	-0.005323648
152	0xbacc6e53	-0.0015596844
153	0xbb3d90d0	-0.0028925426
154	0xbae3edc6	-0.0017389588
155	0x3a6ec56a	0.00091083965
156	0x3943e58c	0.00018682162
157	0xbb153800	-0.0022768974
158	0xbc596640	-0.013269007
159	0xbbd6a58a	-0.0065504955
160	0xba9196ef	-0.0011107604
161	0xbc055fbb	-0.0081405
162	0xbc2fb49e	-0.010724215
163	0xbc80629a	-0.015672017
164	0xbc233fb7	-0.009963921
165	0xbbedbc44	-0.007255109
166	0xbc1e7586	-0.009671574
167	0xbc818cc6	-0.015814196
168	0xbc59ee4e	-0.013301445
169	0xbbab3a92	-0.005225488
170	0xbbe65c98	-0.007030081
171	0xbbd9e410	-0.0066495016
172	0xbc13b2b6	-0.009014776
173	0xbcd52098	-0.026016518
174	0xbc983785	-0.018581161
175	0xbc390876	-0.011293521
176	0xbc2480da	-0.010040486
177	0xbbdba573	-0.0067030727
178	0xbbc140b3	-0.0058976053
179	0xbca15fd2	-0.019699011
180	0xbc32d6c3	-0.010915461
181	0xbc122556	-0.008920034
182	0xbbf15f79	-0.0073661176
183	0xbc3b40b4	-0.011429001
184	0xbc70bc52	-0.014693337
185	0xbc8d29ee	-0.017231908
186	0xbc2e7e49	-0.010650226
187	0xbb3c076d	-0.002869095
188	0xbbcbd640	-0.006220609
189	0xbbba90cc	-0.0056935307
190	0xbbba3693	-0.0056827753
191	0xbc867bd6	-0.016416471
192	0xbb66a52e	-0.003519367
193	0xbac2c444	-0.0014859517
194	0xbbe45b0f	-0.006968863
195	0xbc6c9119	-0.014438891
196	0xbc68cc92	-0.01420893
197	0xbbe2d860	-0.0069227666
198	0xbab17714	-0.0013539516
199	0xbc077189	-0.008266815
200	0xbc25aaf6	-0.010111561
201	0xbc0a3d34	-0.0084374435
202	0xbba8bdc1	-0.0051495736
203	0xbc078955	-0.008272489
204	0xba04fb65	-0.0005072861
205	0xbb930d78	-0.0044876896
206	0xbc4b08b4	-0.012392212
207	0xbc403b78	-0.011732928
208	0xbc1c4d68	-0.009539939
209	0xba16bd66	-0.00057502685
210	0xbc80c8a6	-0.015720677
211	0xbcac7968	-0.021053985
212	0xbc626aab	-0.013819377
213	0xbc4b298d	-0.012400043
214	0xbb03cd79	-0.0020111485
215	0xbb75a300	-0.0037481189
216	0x3bc46c9f	0.005994394
217	0x3bb3edb5	0.0054909834
218	0xbb2dad70	-0.0026501082
219	0xbc4bd73c	-0.012441453
220	0xbc365000	-0.011127472
221	0xbc411244	-0.01178414
222	0xbcbcc3b7	-0.023042543
223	0xbcbbf849	-0.02294554
224	0xbc0f9be1	-0.008765192
225	0xbb9253d6	-0.0044655604
226	0xbb749ef3	-0.0037326186
227	0xbc74119a	-0.014896775
228	0x3b5a2f6e	0.003329243
229	0x3b02a361	0.0019933807
230	0xbaae2279	-0.001328542
231	0xbc15e457	-0.009148679
232	0xbc5fff54	-0.013671715
233	0xbc25a7df	-0.010110824
234	0xbbabd43d	-0.0052438066
235	0xbbd6d97d	-0.0065566883
236	0xbb9c9d05	-0.0047794604
237	0x3a7a71c4	0.00095536956
238	0x3bacd4c6	0.005274388
239	0xbc41d6a2	-0.011830958
240	0xbb6ce854	-0.003614922
241	0xbb3d35f2	-0.0028871265
242	0xbb0a3f53	-0.0021094873
243	0xba020517	-0.0004959865
244	0xbb92e72f	-0.0044831256
245	0xbaeb6644	-0.0017959555
246	0xbbcc9065	-0.006242799
247	0xbc2462ef	-0.010033353
248	0xbc043e12	-0.008071439
249	0xbc01b312	-0.007916229
250	0xbc22b4f2	-0.009930836
251	0xbcbd0b9e	-0.023076829
252	0x3bc3fc66	0.005981016
253	0xb9d5d705	-0.00040786728
254	0x3ae4c0ad	0.0017452441
255	0x3c212971	0.009836541

model.fc1.bias f4 [16]
0	0xbb42a16c	-0.0029698266
1	0xbb5705fd	-0.0032809966
2	0x39268e4f	0.00015884008
3	0xbb8bbb36	-0.0042642606
4	0xbad077b0	-0.001590481
5	0xbb7e8ad2	-0.0038840068
6	0xba56a13c	-0.0008187478
7	0xbb6b49ca	-0.0035902136
8	0xbb3c48dd	-0.0028729953
9	0xba83ec3e	-0.0010064912
10	0xbb0d3c7a	-0.002155094
11	0x3b13f689	0.0022577366
12	0xbba5ac17	-0.005055915
13	0xb9c2f418	-0.00037184427
14	0x9fc59a7c	-8.368832e-20
15	0xba4b6427	-0.00077587593

model.fc2.weight f4 [8, 16]
0	0x3e4757b5	0.19467051
1	0xbd2a02a3	-0.04150642
2	0x3dacf368	0.084448636
3	0x3e4bdfd4	0.19909602
4	0x3de6e7d8	0.112746894
5	0x3e34f17b	0.17670242
6	0x3e352288	0.17688954
7	0xbd3292c9	-0.043597016
8	0xbd2f7b62	-0.042842276
9	0x3e29a05c	0.16565078
10	0xbd249bcc	-0.040187642
11	0xbd316fb8	-0.043319434
12	0xbd392094	-0.045197085
13	0x3e43f4e3	0.19136386
14	0xab8b0d3e	-9.88022e-13
15	0xbd4e858d	-0.050420333
16	0x3e23792f	0.15964197
17	0xbd27a31f	-0.04092705
18	0x3da8dcf7	0.08245271
19	0x3e488f2c	0.19585866
20	0x3e414fd8	0.18878114
21	0x3e4db985	0.20090301
22	0x3e4cd1bc	0.20001882
23	0xbd3ba7dd	-0.045814384
24	0xbd30d84e	-0.043175034
25	0x3e175b25	0.14780863
26	0xbd34b9fe	-0.04412269
27	0xbd367101	-0.044541363
28	0xbd42e641	-0.04758287
29	0x3e02090e	0.12698767
30	0x2e052dfe	3.0281548e-11
31	0xbd38ba75	-0.045099694
32	0x3e399bac	0.1812579
33	0xbd2da57d	-0.04239415
34	0x3da81686	0.08207421
35	0x3e38ede7	0.18059503
36	0x3e190545	0.14943416
37	0x3e2b4e5f	0.16729115
38	0x3e255e96	0.16149363
39	0xbd344d4e	-0.044019036
40	0xbd3a653b	-0.045506697
41	0x3dd5167a	0.10404678
42	0xbd4e7075	-0.050400216
43	0xbd538f55	-0.051650364
44	0xbd46e0f6	-0.048554383
45	0x3e384f00	0.17998886
46	0x340dfae9	1.3222929e-07
47	0xbd494bef	-0.04914468
48	0x3dfedcb0	0.124444366
49	0xbd014c5b	-0.03156696
50	0x3da65f05	0.08123592
51	0x3e084999	0.13309325
52	0x3e092514	0.1339305
53	0x3e40b627	0.18819486
54	0x3e2363fd	0.15956111
55	0xbd158cbe	-0.036511175
56	0xbd0e18e7	-0.034691717
57	0x3e450783	0.19241147
58	0xbd26ebb1	-0.040752117
59	0xbd0a4470	-0.033756673
60	0xbd0bf60c	-0.034170195
61	0x3e4daa2b	0.20084445
62	0x2f2793ab	1.5241024e-10
63	0xbd0e890e	-0.034798674
64	0xbd4700f8	-0.04858491
65	0x3e3ad232	0.18244246
66	0xbc9d0575	-0.019167641
67	0xbd5a00f7	-0.053223576
68	0xbd65a00c	-0.056060836
69	0xbd434141	-0.047669653
70	0xbd4f9f2f	-0.05068892
71	0x3e1a9591	0.15096118
72	0x3e2aed16	0.16692004
73	0xbd7921b9	-0.060823176
74	0x3da4b2b5	0.08041898
75	0x3e2413d0	0.16023183
76	0x3e1d9760	0.15389776
77	0xbd3f1483	-0.04665042
78	0x29c817eb	8.885933e-14
79	0x3e164069	0.14673008
80	0xbd501359	-0.0507997
81	0x3e341e6c	0.1758973
82	0xbc8a4a41	-0.01688111
83	0xbd3b8e9c	-0.0457903
84	0xbd560676	-0.052252255
85	0xbd2958b7	-0.04134437
86	0xbd41b8ba	-0.04729531
87	0x3dd49182	0.10379316
88	0x3e121436	0.14265522
89	0xbd5be1d2	-0.053682156
90	0x3e1a1e13	0.15050535
91	0x3e1bd734	0.15218812
92	0x3e205777	0.15658365
93	0xbd18aee6	-0.03727617
94	0x317c29ab	3.6694512e-09
95	0x3e52836a	0.20557943
96	0xbd76d711	-0.060263697
97	0x3df67d4b	0.120356165
98	0xbcd3463d	-0.025790328
99	0xbd62e9f2	-0.05539889
100	0xbd806229	-0.062687226
101	0xbd54472e	-0.051825695
102	0xbd5ceb33	-0.05393524
103	0x3e2bf9dd	0.16794534
104	0x3e148116	0.14502367
105	0xbd776b87	-0.06040528
106	0x3e532fa1	0.20623638
107	0x3e137860	0.14401388
108	0x3e2380ca	0.15967098
109	0xbd69e792	-0.05710561
110	0x2fbd9df9	3.4491146e-10
111	0x3de26195	0.110537685
112	0xbd6da061	-0.058014277
113	0x3dddd624	0.1083186
114	0xbc8c7a74	-0.017148234
115	0xbd67e238	-0.056612223
116	0xbd7e4d4c	-0.062085435
117	0xbd403d89	-0.046933684
118	0xbd42f6d3	-0.04759867
119	0x3e3ebaba	0.18625918
120	0x3dfa090f	0.12208759
121	0xbd694b82	-0.056956775
122	0x3e151740	0.1455965
123	0x3e1eb5d7	0.15499054
124	0x3e0bc08e	0.13647673
125	0xbd5608a3	-0.05225433
126	0x2e4711d6	4.5263203e-11
127	0x3e07af06	0.1325036

model.fc2.bias f4 [8]
0	0x3dbd1a7c	0.09233567
1	0x3dc43b29	0.095815964
2	0x3dd8a162	0.10577656
3	0x3d80177d	0.0625448
4	0x3dcc17ea	0.09965499
5	0x3d9f7c8c	0.07787427
6	0x3e0a403b	0.13501064
7	0x3dc06ac2	0.093953624

model.fc3.weight f4 [2, 8]
0	0x3ea96457	0.33084366
1	0x3edb9d46	0.42893428
2	0x3ea154a9	0.31509903
3	0x3ea05233	0.31312713
4	0xbe428dce	-0.18999407
5	0xbea351d1	-0.31898358
6	0xbed65ca3	-0.4186755
7	0xbe832a03	-0.2561799
8	0xbe761c2b	-0.24034183
9	0xbe054583	-0.13014798
10	0xbe983dc0	-0.29734612
11	0xbea2e503	-0.31815347
12	0x3eadbd52	0.33933502
13	0x3e416933	0.18887787
14	0x3da12029	0.07867462
15	0x3ea26d6f	0.31724116

model.fc3.bias f4 [2]
0	0x3dc24f9e	0.09487842
1	0xbe203aab	-0.1564738

criterion.weight f4 [2]
0	0x3f000000	0.5
1	0x3f000000	0.5

exp_avg f4 [16, 18, 3, 3]
0	0xbbb189a4	-0.0054180194
1	0xbc037c12	-0.008025186
2	0xbc1d606d	-0.009605509
3	0xbb92db38	-0.0044816993
4	0xbc158fd5	-0.0091285305
5	0xbc08d9b5	-0.008352687
6	0xbbb8bc64	-0.0056376923
7	0xbbfc81f2	-0.0077059204
8	0xbbdf0129	-0.006805558
9	0xbbbfe07a	-0.005855617
10	0xbbf4088b	-0.0074473075
11	0xbc10c63b	-0.008836324
12	0xbb8583b2	-0.004074537
13	0xbc088d2b	-0.008334438
14	0xbbfaf630	-0.0076587424
15	0xbba2eca0	-0.0049720556
16	0xbbe9ff5e	-0.007141038
17	0xbbe0ffc7	-0.0068664285
18	0x3c2e7c4a	0.01064975
19	0x3c3eb10a	0.011638889
20	0x3c33bfa3	0.010970983
21	0x3c2f0eab	0.010684649
22	0x3c3a23ef	0.011361106
23	0x3c411068	0.011783697
24	0x3c2e8c29	0.010653534
25	0x3c3df182	0.0115932245
26	0x3c3899a0	0.011267096
27	0x3bac1085	0.0052509927
28	0x3bf4a8e2	0.0074664215
29	0x3bd96a5b	0.006634993
30	0x3be9e9b0	0.0071384534
31	0x3be495d3	0.0069758683
32	0x3c008f55	0.007846673
33	0x3be5b751	0.0070103784
34	0x3bedc160	0.007255718
35	0x3bfa4956	0.007638137
36	0xba5cf5ae	-0.0008428943
37	0x39a8ab64	0.00032171153
38	0x3a6ddf99	0.0009074151
39	0xba5be038	-0.0008387598
40	0xb90f798b	-0.00013682821
41	0xb9318ace	-0.00016931744
42	0x3a0fc741	0.0005484708
43	0x3abf9645	0.0014616927
44	0x3a82ade5	0.0009970037
45	0x3af67dad	0.0018805765
46	0x3b2d342d	0.0026428804
47	0x3b3f1bee	0.0029160935
48	0x3b1cde6d	0.0023936287
49	0x3af5a020	0.0018739738
50	0x3b077fa9	0.0020675457
51	0x3b54ace9	0.0032451695
52	0x3b6b9c26	0.0035951226
53	0x3b80951c	0.003924025
54	0x3c819ee9	0.015822845
55	0x3c9446a2	0.018100087
56	0x3c95b731	0.018275829
57	0x3c7501fb	0.014954085
58	0x3c90e522	0.017687384
59	0x3c892c32	0.016744707
60	0x3c6d2150	0.014473274
61	0x3c8467d2	0.016162787
62	0x3c874dce	0.016516592
63	0x3a8cd288	0.0010743896
64	0x3b294d38	0.002583338
65	0x3b158df3	0.0022820204
66	0x3ad49b35	0.0016220572
67	0x3ab4114f	0.0013738069
68	0x3ad1bee7	0.0016002328
69	0x396f569a	0.00022825078
70	0x3b0eebea	0.0021808096
71	0x3af6b818	0.0018823175
72	0x3ba4f771	0.00503438
73	0x3bb26215	0.005443821
74	0x3bae9313	0.005327591
75	0x3b7cf186	0.0038596108
76	0x3ba5a9a2	0.005055622
77	0x3bb53af4	0.0055307094
78	0x3b74f400	0.003737688
79	0x3ba377bc	0.0049886387
80	0x3b8815f4	0.0041530076
81	0x3bb26438	0.005444076
82	0x3bea39a5	0.007147985
83	0x3bda864b	0.006668841
84	0x3bbb88ca	0.0057230936
85	0x3bcf0504	0.0063177366
86	0x3bdd7023	0.0067577525
87	0x3b99454f	0.0046774517
88	0x3bbdadca	0.0057885395
89	0x3bc8299a	0.006108475
90	0x3cbc7704	0.02300597
91	0x3ccf0151	0.025269182
92	0x3cd56de1	0.02605337
93	0x3cc01dda	0.023451734
94	0x3ccdcb39	0.025121318
95	0x3cce6375	0.02519391
96	0x3cbeec7f	0.02330613
97	0x3ccdf0cf	0.02513924
98	0x3ccb63ff	0.024827955
99	0x3bd1c7c6	0.0064019887
100	0x3c0160de	0.00789663
101	0x3c07b155	0.008282025
102	0x3bf6f0bf	0.0075360234
103	0x3c038f34	0.008029748
104	0x3c081084	0.008304719
105	0x3bfc0c56	0.0076919002
106	0x3c0f3c13	0.00874235
107	0x3c0f0834	0.008729983
108	0x3ba5d134	0.0050603393
109	0x3bd0be1d	0.0063703195
110	0x3be96b65	0.007123398
111	0x3ba14286	0.0049212603
112	0x3bc90068	0.0061340816
113	0x3bbad795	0.005701969
114	0x3b7c1c35	0.003846896
115	0x3ba37787	0.004988614
116	0x3ba548ec	0.0050440934
117	0x3b6971da	0.003562084
118	0x3bb3b6c4	0.005484434
119	0x3bbd0eab	0.005769571
120	0x3b5bacbf	0.0033519713
121	0x3b9472b7	0.0045302766
122	0x3ba800e9	0.0051270616
123	0x3b26ad1b	0.0025432769
124	0x3b667f4b	0.0035171087
125	0x3b84cae7	0.004052508
126	0x3bc33db2	0.0059582824
127	0x3be8f0f5	0.0071088024
128	0x3bfb2866	0.007664728
129	0x3bb7336f	0.005590848
130	0x3c0e9d70	0.008704528
131	0x3bf46aef	0.0074590365
132	0x3b79bc9c	0.0038106805
133	0x3bf6a6af	0.0075271945
134	0x3be82d14	0.007085452
135	0x3b458280	0.0030137599
136	0x3bc63c47	0.006049666
137	0x3bdba97b	0.0067035533
138	0x3adfb130	0.0017066356
139	0x3b931cb6	0.0044895066
140	0x3bd19e5a	0.006397051
141	0x3998dcab	0.0002915611
142	0x3b33c8b3	0.0027432858
143	0x3b9101c7	0.0044252607
144	0x3b973e97	0.0046156156
145	0x3b92782d	0.0044698925
146	0x3af0e53c	0.0018378864
147	0x3bf448c9	0.0074549657
148	0x3bcb4801	0.006203652
149	0x3b974750	0.0046166554
150	0x3bf9d9b2	0.0076248283
151	0x3bcd1725	0.0062588626
152	0x3ba40fdb	0.005006773
153	0x3b92c67c	0.0044792276
154	0x3bd57a67	0.0065148356
155	0x3bb09d17	0.0053898203
156	0x3bd8ce60	0.0066163987
157	0x3c03b99c	0.008039858
158	0x3be3909a	0.006944728
159	0x3bcfde3f	0.0063436325
160	0x3c0f9e37	0.008765749
161	0x3bfa923c	0.007646827
162	0x3b9657b4	0.0045880917
163	0x3b8ee849	0.0043611866
164	0x3b079a6d	0.002069141
165	0x3bc88e39	0.00612047
166	0x3ba0168a	0.0048854994
167	0x3b877fbe	0.004135101
168	0x3c047d19	0.008086466
169	0x3badb852	0.0053015137
170	0x3ba1dee4	0.0049399007
171	0x3b8fc8c7	0.004387948
172	0x3b9c0f9d	0.0047626034
173	0x3aeb0da6	0.0017933145
174	0x3bbf79a2	0.005843357
175	0x3ba1056b	0.004913976
176	0x3b6c3cf6	0.0036047078
177	0x3bffc0ba	0.007804957
178	0x3bb85bf0	0.005626194
179	0x3b9a5761	0.0047101234
180	0x3c0551f4	0.008137215
181	0x3c00fb8c	0.007872473
182	0x3c0294eb	0.007970075
183	0x3bd92a2a	0.006627341
184	0x3bef81e8	0.007309187
185	0x3bf5ffce	0.007507301
186	0x3be42d4f	0.006963409
187	0x3be809ed	0.0070812614
188	0x3bce1440	0.006289035
189	0x3b6e00f6	0.003631649
190	0x3b720a7e	0.0036932523
191	0x3b9f6610	0.0048644617
192	0x3b36e0b0	0.002790492
193	0x3b98eead	0.0046671242
194	0x3b90f199	0.004423332
195	0x3b2644d8	0.0025370624
196	0x3b7549ba	0.0037427978
197	0x3b83d612	0.004023322
198	0x3b4c5219	0.0031176864
199	0x3b0495a4	0.0020230794
200	0x3b001a3f	0.0019546894
201	0x3b33cf9c	0.0027436977
202	0x3b2c6e0f	0.0026310717
203	0x3b165f30	0.002294492
204	0x3b4a69ce	0.0030885818
205	0x3b40b1a9	0.0029402769
206	0x3b23834d	0.0024950088
207	0x3b79b802	0.0038104062
208	0x3b417a37	0.0029522309
209	0x3b72ac62	0.0037029018
210	0x3b868851	0.0041056057
211	0x3b527ecc	0.0032119034
212	0x3b1973a2	0.002341487
213	0x3b6e6f03	0.0036382086
214	0x3b773537	0.0037720928
215	0x3b6e9fdc	0.0036411202
216	0x3c7ec69d	0.015550283
217	0x3c88a1a8	0.016678646
218	0x3c951f5a	0.018203426
219	0x3c68e951	0.014215783
220	0x3c7e1832	0.015508698
221	0x3c902f7d	0.01760077
222	0x3c72f3f8	0.0148286745
223	0x3c84d97f	0.016216991
224	0x3c85b07c	0.016319506
225	0x3b2cda22	0.0026375134
226	0x3b0d02e3	0.0021516613
227	0x3b14fe60	0.0022734627
228	0x3a8b52e6	0.0010629564
229	0x39c85d84	0.00038216647
230	0x3a809091	0.0009808709
231	0x3ac1762a	0.0014759947
232	0x3a5e48d0	0.0008479478
233	0x3ac4cd41	0.0015014784
234	0x3afd22c3	0.0019312728
235	0x3afb2743	0.0019161481
236	0x3b1e1839	0.0024123325
237	0x3ad0ff2d	0.0015945189
238	0x3acfb58b	0.0015846951
239	0x3b0e5b9e	0.0021722089
240	0x3af638be	0.0018785221
241	0x3ab6796f	0.0013921688
242	0x3aeedfdf	0.0018224678
243	0x3b2f53cf	0.0026752835
244	0x3b3cdeb6	0.002881927
245	0x3b43c0b1	0.0029869492
246	0x3b34eb2c	0.0027605994
247	0x3b5112e8	0.0031902138
248	0x3b5490b3	0.003243488
249	0x3b5e0deb	0.0033882807
250	0x3b3ab38f	0.0028488373
251	0x3b3b90a2	0.0028620143
252	0x3c9c47c4	0.01907719
253	0x3ca9a183	0.020706898
254	0x3cb0e935	0.021595577
255	0x3c8fbb84	0.01754547

exp_avg_sq f4 [16, 18, 3, 3]
0	0x3ac8765a	0.001529406
1	0x3b1ec16f	0.0024224182
2	0x3b14a889	0.0022683463
3	0x3ad1752e	0.0015980357
4	0x3b109ddc	0.0022066748
5	0x3b16cd29	0.0023010469
6	0x3abb7947	0.0014303111
7	0x3b1e1e73	0.0024127036
8	0x3b17ab10	0.0023142733
9	0x3ad38945	0.0016138932
10	0x3b258555	0.0025256474
11	0x3b1bcd60	0.0023773536
12	0x3adc2d10	0.0016798098
13	0x3b17cc27	0.0023162456
14	0x3b1df5f6	0.0024102903
15	0x3ac69999	0.0015151977
16	0x3b24fb60	0.0025174245
17	0x3b1e9f7e	0.0024203951
18	0x3a4743c8	0.0007601348
19	0x3a7e4ea8	0.0009701052
20	0x3a7ff48b	0.0009763918
21	0x3a4686d9	0.00075731945
22	0x3a80138b	0.0009771449
23	0x3a7e2060	0.00096941553
24	0x3a44d44c	0.00075084413
25	0x3a80de5e	0.0009831896
26	0x3a7dcdca	0.0009681849
27	0x3a2dda90	0.00066319946
28	0x3a6018dd	0.0008548627
29	0x3a614963	0.00085940043
30	0x3a2e10c9	0.00066400744
31	0x3a631a9f	0.00086633296
32	0x3a5e9ae5	0.0008491709
33	0x3a2ad2d5	0.0006516402
34	0x3a638f0d	0.0008680679
35	0x3a5ded97	0.00084658846
36	0x3aa13c38	0.0012301272
37	0x3abf5a54	0.0014599063
38	0x3abd4912	0.0014441332
39	0x3aa2d399	0.001242268
40	0x3ac6075f	0.0015108398
41	0x3ac57aa6	0.0015066459
42	0x3a9f24be	0.0012141687
43	0x3ac1d69a	0.0014788688
44	0x3abc3836	0.0014360014
45	0x3ab2e9ee	0.0013650039
46	0x3ad2e5a7	0.001609017
47	0x3acf5fb5	0.001582137
48	0x3ab2386a	0.0013597135
49	0x3ad74c11	0.0016425868
50	0x3ad25e47	0.0016049825
51	0x3aac6fe2	0.0013155902
52	0x3ad3bc9e	0.0016154235
53	0x3acaae24	0.0015463275
54	0x3ac401a7	0.0014954106
55	0x3ae1c434	0.0017224611
56	0x3ae3ca6d	0.0017379053
57	0x3ac583f4	0.0015069232
58	0x3ae68773	0.0017587974
59	0x3ae823a8	0.0017710822
60	0x3ac6d29e	0.001516897
61	0x3ae7c924	0.0017683846
62	0x3ae9a319	0.0017825096
63	0x3b1dacf9	0.0024059399
64	0x3b334c1f	0.0027358604
65	0x3b343d1b	0.0027502242
66	0x3b209c1c	0.002450711
67	0x3b371f54	0.0027942257
68	0x3b382090	0.002809558
69	0x3b1e9886	0.0024199798
70	0x3b350343	0.0027620352
71	0x3b35ca34	0.002773893
72	0x3a014f1b	0.0004932747
73	0x3a37fbca	0.00070184155
74	0x3a382a78	0.00070253713
75	0x3a042572	0.000504098
76	0x3a3bffa4	0.00071715773
77	0x3a3c041a	0.0007172242
78	0x3a063470	0.0005119508
79	0x3a3da69f	0.00072346063
80	0x3a3cd5eb	0.0007203507
81	0x3a459e1c	0.0007538514
82	0x3a8488c2	0.0010111558
83	0x3a84a90a	0.0010121178
84	0x3a48c2eb	0.00076584396
85	0x3a8690b7	0.0010266517
86	0x3a86d7f6	0.001028775
87	0x3a4a6fd0	0.000772235
88	0x3a875d08	0.0010327408
89	0x3a8738e9	0.0010316643
90	0x3b033591	0.0020020942
91	0x3b1a80f1	0.002357539
92	0x3b1ba3e8	0.0023748819
93	0x3b05f1cc	0.0020438312
94	0x3b1f50c2	0.002430961
95	0x3b205862	0.0024466743
96	0x3b05d87c	0.0020423224
97	0x3b1f380d	0.0024294883
98	0x3b20a8f8	0.0024514776
99	0x3b432198	0.0029774662
100	0x3b5cd734	0.0033697607
101	0x3b5d2324	0.003374287
102	0x3b460c51	0.0030219743
103	0x3b60e1c5	0.0034314257
104	0x3b617573	0.003440228
105	0x3b439f20	0.0029849485
106	0x3b5e1a95	0.0033890356
107	0x3b5eb3d9	0.003398171
108	0x39dd733b	0.00042238258
109	0x3a1f584e	0.0006078527
110	0x3a1fd496	0.00060970464
111	0x39e3cdad	0.00043450054
112	0x3a23ce69	0.0006248714
113	0x3a23fd07	0.00062556606
114	0x39e8bee1	0.00044392704
115	0x3a25e157	0.0006327829
116	0x3a25146c	0.00062972936
117	0x3a89da1e	0.0010517274
118	0x3ab1bbfc	0.0013560052
119	0x3ab33222	0.0013671557
120	0x3a8a4549	0.0010549213
121	0x3ab0dc4c	0.0013493388
122	0x3ab30df8	0.0013660779
123	0x3a89c764	0.0010511694
124	0x3aaff22b	0.0013423612
125	0x3ab1f9c5	0.0013578465
126	0x3ac3d697	0.0014941272
127	0x3b0ec310	0.0021783747
128	0x3b060dac	0.0020454926
129	0x3abf46ab	0.0014593204
130	0x3b07c83c	0.0020718714
131	0x3b06ea52	0.0020586443
132	0x3abb3209	0.0014281879
133	0x3b06dea1	0.0020579475
134	0x3b0865f6	0.0020812727
135	0x3a386907	0.0007034693
136	0x3a7a7d07	0.00095553737
137	0x3a757bf5	0.00093644793
138	0x3a3d0acd	0.0007211387
139	0x3a7722df	0.00094274984
140	0x3a738af2	0.0009290419
141	0x3a351d24	0.00069089443
142	0x3a752b89	0.00093524955
143	0x3a7315ef	0.0009272983
144	0x39c9eaf6	0.00038512767
145	0x39f41c51	0.00046560404
146	0x39f45bed	0.00046607797
147	0x3a13435e	0.00056176435
148	0x3a118508	0.0005551134
149	0x39ffce6f	0.00048791195
150	0x3a0693f1	0.00051337393
151	0x39fdc9ae	0.00048406183
152	0x3a044e9a	0.0005047113
153	0x3a30f1cd	0.00067498983
154	0x3a669e4c	0.0008797392
155	0x3a66f43a	0.00088101963
156	0x3a37b5f1	0.00070080074
157	0x3a703374	0.00091629406
158	0x3a67779a	0.00088297727
159	0x3a3902f6	0.0007057631
160	0x3a6acec7	0.0008957204
161	0x3a670459	0.00088125985
162	0x398279e8	0.0002488636
163	0x398354c3	0.0002504942
164	0x397ccbb3	0.00024108477
165	0x398f0a93	0.00027282964
166	0x3996adcf	0.00028739727
167	0x3985989d	0.00025481443
168	0x398ca89a	0.000268285
169	0x398fddd7	0.0002744037
170	0x398b9781	0.00026625025
171	0x397b1dd8	0.00023948343
172	0x39792ed7	0.0002376394
173	0x396d6abd	0.00022641844
174	0x3985acfb	0.00025496617
175	0x398b5e9f	0.00026582644
176	0x39752c2d	0.00023381478
177	0x3980b8ad	0.00024551657
178	0x397f5332	0.00024349688
179	0x397cdc09	0.00024114562
180	0x3a3a340d	0.0007103093
181	0x3a3d4636	0.000722024
182	0x3a3d84f2	0.0007229588
183	0x3a409327	0.0007346146
184	0x3a458c52	0.0007535863
185	0x3a449778	0.0007499377
186	0x3a3f1b73	0.0007290162
187	0x3a44ea66	0.0007511735
188	0x3a447e16	0.0007495595
189	0x3a0e3ea4	0.00054262043
190	0x3a100b5f	0.00054948585
191	0x3a0c551e	0.00053532596
192	0x3a1b1189	0.00059153937
193	0x3a202412	0.00061088905
194	0x3a18cefa	0.0005829182
195	0x3a16c306	0.00057511067
196	0x3a1a30bd	0.00058818964
197	0x3a1774ee	0.0005777617
198	0x3a0e15d2	0.00054201216
199	0x3a10fc46	0.0005530756
200	0x3a19c415	0.00058657053
201	0x3a0ec2bf	0.00054458895
202	0x3a0ffcb1	0.0005492671
203	0x3a1be6cf	0.0005947174
204	0x3a1b7b61	0.00059311657
205	0x3a28393d	0.00064172206
206	0x3a216cd2	0.0006157878
207	0x3a095707	0.00052391033
208	0x3a0c5bc1	0.00053542486
209	0x3a11932f	0.0005553243
210	0x3a01887d	0.0004941298
211	0x3a02e50e	0.0004993238
212	0x3a09be05	0.00052544504
213	0x3a014143	0.0004930684
214	0x3a053f2a	0.00050829595
215	0x3a06d8a8	0.00051439786
216	0x3a985847	0.0011622988
217	0x3a9bafca	0.0011877951
218	0x3aa18281	0.0012322218
219	0x3a93a800	0.0011265278
220	0x3a96b0d3	0.001149679
221	0x3a9e152c	0.0012060753
222	0x3a90003f	0.0010986401
223	0x3a93ee77	0.0011286278
224	0x3a9c9ba4	0.001194824
225	0x3a8853eb	0.0010400986
226	0x3a8e17c8	0.0010840828
227	0x3a95f86b	0.0011441832
228	0x3a89ebbe	0.0010522527
229	0x3a908427	0.0011025713
230	0x3a9993a1	0.001171697
231	0x3a86957f	0.0010267942
232	0x3a8d556f	0.0010782907
233	0x3a96922d	0.0011487656
234	0x39268917	0.00015882064
235	0x391b8286	0.00014830576
236	0x390f4e13	0.00013666628
237	0x3933182b	0.00017079774
238	0x392679d1	0.00015876374
239	0x391934dd	0.0001461091
240	0x393dfb9e	0.0001811818
241	0x39303283	0.00016803485
242	0x392251d1	0.00015480003
243	0x39941f0a	0.00028251886
244	0x398e5ab1	0.0002715192
245	0x39879f9c	0.00025868125
246	0x399b5cb2	0.00029632967
247	0x3994b844	0.00028366048
248	0x398d039a	0.000268963
249	0x39a1ea4d	0.0003088288
250	0x399adfe4	0.0002953998
251	0x3992da66	0.0002801001
252	0x3ae175be	0.0017201228
253	0x3ae2ceab	0.0017304023
254	0x3aea9fa1	0.0017900356
255	0x3adb0b0f	0.001671167

exp_avg f4 [16]
0	0xbc084bb5	-0.008318831
1	0xbc14a1f6	-0.009071818
2	0xba65f7b9	-0.000877257
3	0x3bf4fd46	0.0074764816
4	0xbb42e21b	-0.002973682
5	0x3aaf7a89	0.0013387959
6	0xbb8c93d8	-0.0042900853
7	0x38da0bdc	0.00010397259
8	0x38dbb495	0.0001047637
9	0x3a6b9135	0.0008986176
10	0x3b3e93d7	0.0029079819
11	0x3b452a3d	0.003008499
12	0xbbf3077b	-0.007416663
13	0xbaef6a05	-0.0018265849
14	0x3b6e9f61	0.0036410915
15	0x3b6e0685	0.0036319804

exp_avg_sq f4 [16]
0	0x3b122e7a	0.0022305534
1	0x3aa6e191	0.0012732019
2	0x394f9801	0.00019797684
3	0x3b10160c	0.0021985797
4	0x3a84bd46	0.0010127209
5	0x3a85b768	0.0010201754
6	0x3ab7418b	0.0013981325
7	0x3a35d259	0.00069359463
8	0x3ad40bb4	0.0016177804
9	0x3a24bf10	0.0006284574
10	0x3b5ff1b8	0.0034171175
11	0x3a521e56	0.00080153847
12	0x394fbaab	0.00019810598
13	0x3b89df12	0.0042075003
14	0x3a5ad63d	0.0008347964
15	0x3aca5d37	0.0015439157

exp_avg f4 [16, 2304]
0	0xba87d85f	-0.0010364166
1	0xba3e8e2e	-0.0007269111
2	0xba213308	-0.0006149267
3	0xb9c76ed7	-0.0003803882
4	0xb99f5b22	-0.00030394742
5	0xb9a10339	-0.00030710714
6	0xba420d49	-0.00074024923
7	0xba8051c6	-0.0009789995
8	0xba299a92	-0.0006469871
9	0xba27be44	-0.0006398896
10	0xba23bdaf	-0.00062462216
11	0xb9d811ca	-0.00041211984
12	0xba8e47cd	-0.0010855139
13	0xba4480ef	-0.0007496019
14	0xba6b3cc7	-0.0008973595
15	0xba0ee578	-0.00054510636
16	0xba1bd98b	-0.0005945197
17	0xb9b5f190	-0.00034702988
18	0xb90ab5ba	-0.00013228404
19	0xb9c2cc39	-0.0003715472
20	0xba0d730e	-0.00053958676
21	0xba1617e1	-0.0005725604
22	0xb7646743	-1.36139015e-05
23	0xb8fb9e95	-0.00011998151
24	0xba9ad8d6	-0.001181389
25	0xba8d4cfa	-0.0010780387
26	0xba72e383	-0.0009265469
27	0xba8d0242	-0.0010758119
28	0xba4dd427	-0.00078517426
29	0xb9925394	-0.0002790956
30	0xb95aab83	-0.00020853993
31	0xb990411d	-0.00027514333
32	0xb9834545	-0.00025037877
33	0x3949ca5e	0.00019244241
34	0x3a2e551f	0.0006650257
35	0xb8cedc0e	-9.863834e-05
36	0xba5fe69e	-0.00085411395
37	0xba7a6dbd	-0.00095530954
38	0xba9c219a	-0.001191187
39	0xbaade33e	-0.0013266576
40	0xba8ecbc0	-0.0010894462
41	0xba21fb67	-0.00061791245
42	0xba9c93de	-0.0011945923
43	0xb9d32d77	-0.0004027893
44	0xba18667f	-0.0005813613
45	0xb98eaada	-0.00027211645
46	0x3971e2bd	0.00023068018
47	0xbad35960	-0.0016124658
48	0xba2d87d6	-0.00066196674
49	0xba15a1c6	-0.0005708005
50	0xba51e43e	-0.0008006728
51	0xba76f41b	-0.000942053
52	0xba8f08b4	-0.0010912628
53	0xba836b71	-0.0010026527
54	0xbacf70a1	-0.0015826413
55	0xbab664fe	-0.0013915596
56	0xba8adec8	-0.0010594958
57	0xba8ad483	-0.0010591898
58	0xba796b6a	-0.0009514602
59	0xbb0c18bb	-0.0021377045
60	0xba7420a1	-0.00093127234
61	0xba4298ef	-0.00074233016
62	0xba10a5d9	-0.0005517877
63	0xba02cf91	-0.0004990036
64	0xba285224	-0.00064209313
65	0xba911050	-0.0011067484
66	0xbae64c74	-0.0017570392
67	0xbb02d223	-0.0019961677
68	0xbad7582e	-0.0016429478
69	0xbad0da2c	-0.0015934161
70	0xbabc5e3a	-0.0014371343
71	0xba943670	-0.0011307728
72	0xbaa852ea	-0.0012842093
73	0xba398477	-0.0007076929
74	0xb9065002	-0.00012809041
75	0xb9cf542f	-0.00039544838
76	0xba38f424	-0.0007055423
77	0xba890442	-0.001045354
78	0xbacac424	-0.0015469831
79	0xbaec6537	-0.0018035535
80	0xbb02e153	-0.001997073
81	0xbb16b122	-0.0022993763
82	0xbb167c77	-0.002296237
83	0xbaa9e58c	-0.0012962087
84	0xba555657	-0.0008138171
85	0xb967a8b4	-0.00022092724
86	0xb8e43c56	-0.00010883126
87	0xba49ea0b	-0.00077024166
88	0xbaa5149b	-0.0012594642
89	0xbab3c975	-0.0013716655
90	0xbaba23cb	-0.0014201341
91	0xbab7aff7	-0.0014014234
92	0xbad55a67	-0.0016277552
93	0xbaf0fac3	-0.001838528
94	0xbad4e3ae	-0.001624217
95	0xbb0d1582	-0.0021527712
96	0xba0998c0	-0.0005248897
97	0xb89a220e	-7.3496354e-05
98	0xb923b806	-0.00015613445
99	0xba553cae	-0.0008134347
100	0xba4c7c33	-0.00078004895
101	0xba934307	-0.0011235186
102	0xba9eeb67	-0.0012124599
103	0xbaa83532	-0.0012833236
104	0xbac78011	-0.0015220662
105	0xbaf1940b	-0.0018430961
106	0xbad41e88	-0.0016183415
107	0xbae8246e	-0.0017711052
108	0xb9e58923	-0.00043780459
109	0xb7dbc4bb	-2.6198444e-05
110	0xb88c1a3c	-6.680607e-05
111	0xb9a1b796	-0.00030845095
112	0xba293f40	-0.00064562634
113	0xba9a05fb	-0.001175105
114	0xbaac0e65	-0.0013126848
115	0xbad1e717	-0.0016014305
116	0xbaf06fd8	-0.0018343879
117	0xbafbdab7	-0.0019214962
118	0xbae75609	-0.0017649542
119	0xbad774a7	-0.0016437963
120	0xba04e25e	-0.0005069132
121	0xb96d3bda	-0.00022624378
122	0xb9b618f4	-0.00034732337
123	0xba011e92	-0.0004925515
124	0xba2e9ccf	-0.00066609395
125	0xba9106ce	-0.001106465
126	0xbab59adc	-0.0013855356
127	0xbac49649	-0.0014998402
128	0xbaba40d4	-0.0014209994
129	0xbaa546f8	-0.0012609651
130	0xbac1bbed	-0.0014780738
131	0xbaea22db	-0.0017863171
132	0xb98f8173	-0.00027371533
133	0xb989b7f8	-0.00026267744
134	0xb9884383	-0.00025990242
135	0xba2d1d7e	-0.0006603821
136	0xba553f9e	-0.0008134785
137	0xba4b9dec	-0.00077673676
138	0xbaaad270	-0.0013032686
139	0xbab86851	-0.0014069175
140	0xbaa66897	-0.0012695965
141	0xba9c3085	-0.0011916315
142	0xbadbe81e	-0.001677755
143	0xbacd8c23	-0.0015682023
144	0xb80f3cc8	-3.4150464e-05
145	0xba46b4f1	-0.0007580063
146	0xbaa1a6a9	-0.0012332994
147	0xbab2d572	-0.0013643934
148	0xb9eb3988	-0.00044865557
149	0x3a77dd03	0.00094552356
150	0xb9ea8199	-0.00044728516
151	0xba654780	-0.0008746311
152	0x382cbed5	4.118572e-05
153	0xb9d6a1d2	-0.00040937826
154	0xb9e7b7cf	-0.00044196701
155	0x38c4d68a	9.385969e-05
156	0xb99c04ae	-0.00029758125
157	0x3817fb81	3.6235437e-05
158	0xb94a45c7	-0.00019290215
159	0xba5b78f0	-0.0008372208
160	0x391b0e1b	0.00014787207
161	0x3a81e5d9	0.0009910419
162	0x3a9f4b3c	0.0012153159
163	0x3a3b2c86	0.00071401184
164	0xb92d4d22	-0.000165273
165	0x381ed27b	3.786616e-05
166	0x3a85411b	0.0010166498
167	0x3976adbf	0.00023525114
168	0x3a134cf1	0.000561907
169	0x3a440783	0.0007477926
170	0x3945e790	0.00018873648
171	0xb99da7f6	-0.00030070514
172	0x3a4a9af8	0.00077287806
173	0x3a05903e	0.0005095041
174	0x3a5fe0de	0.0008540283
175	0x3aa6acc5	0.0012716284
176	0x3a060029	0.0005111718
177	0x3afbc722	0.0019209126
178	0x3afa4691	0.0019094517
179	0xb9d841c8	-0.0004124774
180	0x3aafcd6c	0.0013412661
181	0x3a93b10a	0.0011267972
182	0x39f629b8	0.0004695186
183	0x397af530	0.00023933197
184	0x39660e23	0.00021939776
185	0xba8c4e07	-0.0010704406
186	0xbafa474a	-0.0019094732
187	0xba22554a	-0.00061925186
188	0x3a1429b0	0.0005651964
189	0x3aaeba8a	0.001333074
190	0x38bc4487	8.977303e-05
191	0xbad42ae9	-0.0016187105
192	0x3a2e0da2	0.00066396047
193	0xb6ea6b7f	-6.9862576e-06
194	0xba080462	-0.00051886414
195	0xba849294	-0.0010114484
196	0xba4ef83e	-0.00078952673
197	0xbb00e8d7	-0.0019670033
198	0xbb652fb6	-0.0034971065
199	0xbb2faf05	-0.00268072
200	0xb8bec3d1	-9.09638e-05
201	0xb7bcd9e0	-2.2512802e-05
202	0xbaf700db	-0.001884486
203	0xbaf32385	-0.0018550014
204	0x3a1b988b	0.00059355114
205	0x390d7da8	0.00013493618
206	0xb9ac285e	-0.00032836472
207	0xba3ebe0d	-0.00072762446
208	0xbabdd671	-0.0014483464
209	0xbabb0312	-0.0014267883
210	0xbb3e5656	-0.002904316
211	0xbb368e62	-0.0027855863
212	0x3960dd11	0.00021444658
213	0x3a38c9d0	0.00070491154
214	0xba679c76	-0.0008835265
215	0xb9940353	-0.00028231237
216	0x39d4c31a	0.00040581153
217	0x39dfd5c0	0.0004269313
218	0x37dbbcc6	2.6194739e-05
219	0xba1162bc	-0.00055460236
220	0xbaad8d79	-0.0013241015
221	0xbaba9c61	-0.0014237278
222	0xbab16d23	-0.0013536554
223	0xb9baa547	-0.00035599826
224	0xb91ed6ae	-0.00015148029
225	0xb7c3c6e6	-2.333843e-05
226	0x3909fb3b	0.00013158929
227	0x3afcc73f	0.0019285454
228	0x39cf94de	0.0003959303
229	0x38b7dbbc	8.767049e-05
230	0x38e8de4a	0.000111040266
231	0x37ddfb4a	2.6462269e-05
232	0xba0007c8	-0.0004883972
233	0xb9c27c54	-0.00037095195
234	0x39ad7408	0.0003308358
235	0x3a8576cf	0.0010182502
236	0x395917be	0.00020703577
237	0x392df74d	0.00016590692
238	0xb9c3f4e4	-0.00037375756
239	0x398aa78d	0.00026446246
240	0xb82f44cd	-4.1787327e-05
241	0x36497d7f	3.0024382e-06
242	0x38fd604f	0.00012081919
243	0x3a356918	0.0006920262
244	0xb997cc2d	-0.00028953087
245	0x39872d33	0.00025782883
246	0x37a5a182	1.974474e-05
247	0x39449a6a	0.0001874954
248	0xb989ecf5	-0.00026307223
249	0x39a4cdc9	0.0003143384
250	0xba1cca8f	-0.00059811113
251	0xba9c21d0	-0.0011911932
252	0x39bed3b7	0.00036397364
253	0x39f2e228	0.00046326336
254	0xb98f6e8c	-0.0002735745
255	0x39163f71	0.00014328749

exp_avg_sq f4 [16, 2304]
0	0x37975f7e	1.804507e-05
1	0x379ad8d5	1.84592e-05
2	0x37afcfae	2.0958334e-05
3	0x37d4b030	2.5354413e-05
4	0x37e3586c	2.7101683e-05
5	0x37e2c026	2.7030776e-05
6	0x37da0a52	2.599243e-05
7	0x37dc27ea	2.624463e-05
8	0x37cf3e1b	2.4705243e-05
9	0x37af78c9	2.091787e-05
10	0x37acd8a1	2.0604873e-05
11	0x37a1d81b	1.9293328e-05
12	0x37bb2ecf	2.2313934e-05
13	0x37cae5a4	2.4187211e-05
14	0x37e242b9	2.697237e-05
15	0x380cfeee	3.3616023e-05
16	0x38096b93	3.276353e-05
17	0x380f1001	3.410876e-05
18	0x3810d197	3.452747e-05
19	0x380c4cb5	3.345004e-05
20	0x3802d5e9	3.1193635e-05
21	0x37e2f6a9	2.705616e-05
22	0x37d1e10c	2.5019537e-05
23	0x37c41539	2.3374903e-05
24	0x37d2dd81	2.5137097e-05
25	0x37decb23	2.6559055e-05
26	0x37f4e04c	2.9191513e-05
27	0x3818aff0	3.640348e-05
28	0x381b5cac	3.7041187e-05
29	0x3820c6f8	3.8332277e-05
30	0x381e8a46	3.7798913e-05
31	0x3815fc3d	3.5759283e-05
32	0x38149bdd	3.543111e-05
33	0x380b5183	3.3216096e-05
34	0x37f05cfb	2.8653527e-05
35	0x37d254ba	2.5073405e-05
36	0x37b75685	2.1855589e-05
37	0x37c4b7a9	2.3450544e-05
38	0x37e953f4	2.7814858e-05
39	0x3809c7b7	3.2849344e-05
40	0x38277677	3.992623e-05
41	0x38271aba	3.9840794e-05
42	0x382457c1	3.9182374e-05
43	0x381a0835	3.6724105e-05
44	0x381a11da	3.6733087e-05
45	0x3819def8	3.66857e-05
46	0x3808ad5c	3.258638e-05
47	0x37ea854e	2.7957049e-05
48	0x37da8b94	2.6052621e-05
49	0x37f5bc47	2.929395e-05
50	0x37e67d0e	2.747637e-05
51	0x37f60e9a	2.9332285e-05
52	0x3823e68b	3.907694e-05
53	0x382cc3bf	4.11903e-05
54	0x3824251e	3.9135215e-05
55	0x381d7ef6	3.754996e-05
56	0x38159954	3.5667166e-05
57	0x3812b504	3.4977696e-05
58	0x38047198	3.1577045e-05
59	0x37fcee1d	3.0151621e-05
60	0x380b1f0d	3.31691e-05
61	0x38365012	4.3466753e-05
62	0x380f412c	3.4154553e-05
63	0x37f0f75d	2.8725417e-05
64	0x381573c9	3.56322e-05
65	0x381a1413	3.6735157e-05
66	0x3821131f	3.84032e-05
67	0x38241a64	3.9125225e-05
68	0x381d3f65	3.7490758e-05
69	0x3814c4cb	3.5469227e-05
70	0x3809058d	3.2668515e-05
71	0x37fceb35	3.0150268e-05
72	0x37d1073b	2.4918108e-05
73	0x38012941	3.0794417e-05
74	0x37e0da19	2.680444e-05
75	0x37e9a6f0	2.78535e-05
76	0x38046963	3.15694e-05
77	0x3804baf4	3.1645366e-05
78	0x3818db28	3.644373e-05
79	0x38270254	3.981807e-05
80	0x38284420	4.0117768e-05
81	0x3824ace6	3.926167e-05
82	0x3814bb87	3.5460598e-05
83	0x3803657e	3.1327356e-05
84	0x37aecc7a	2.0837633e-05
85	0x37b5d6a8	2.1676839e-05
86	0x37b8dae2	2.2036435e-05
87	0x37c9e2dd	2.4066709e-05
88	0x37e78a4c	2.7601745e-05
89	0x37f43f78	2.9116622e-05
90	0x38083bbb	3.2480555e-05
91	0x380ebabd	3.402935e-05
92	0x381ed9cf	3.7872986e-05
93	0x3821423e	3.8447084e-05
94	0x381a3121	3.6762216e-05
95	0x38113c74	3.4626995e-05
96	0x37b2cb1c	2.1313834e-05
97	0x37b5eb07	2.1686325e-05
98	0x37b434af	2.1482205e-05
99	0x37b39e8b	2.141229e-05
100	0x37bff888	2.2884706e-05
101	0x37d20611	2.5036776e-05
102	0x37f3eed0	2.9079063e-05
103	0x381fb17b	3.8073846e-05
104	0x3836d37a	4.3589134e-05
105	0x38354cf1	4.322542e-05
106	0x3830d4e5	4.2159943e-05
107	0x3823cdb1	3.9053793e-05
108	0x37b523a4	2.1593478e-05
109	0x37bc5cb4	2.2454515e-05
110	0x37bac042	2.2262455e-05
111	0x37b0f77a	2.1096075e-05
112	0x37b68e22	2.1762276e-05
113	0x37c38320	2.3306871e-05
114	0x37e3e5e6	2.7167564e-05
115	0x3827f892	4.0047402e-05
116	0x3849bd97	4.8098704e-05
117	0x3851f083	5.0053477e-05
118	0x3852cbed	5.0257822e-05
119	0x3825223a	3.937094e-05
120	0x37c68208	2.366399e-05
121	0x37f3cdc4	2.9063674e-05
122	0x3803df93	3.1441054e-05
123	0x37d62bc8	2.5531175e-05
124	0x37d32cbe	2.5173995e-05
125	0x37ea7127	2.7947664e-05
126	0x3812c972	3.4996723e-05
127	0x3826ca01	3.9765615e-05
128	0x384331d9	4.6538047e-05
129	0x385fc0e4	5.3346987e-05
130	0x3854363a	5.059524e-05
131	0x38296216	4.038409e-05
132	0x37fead89	3.0359968e-05
133	0x3816cff8	3.5956473e-05
134	0x381eaacb	3.78292e-05
135	0x37f4a2f4	2.9162948e-05
136	0x37dff018	2.6695474e-05
137	0x38137e9a	3.5165438e-05
138	0x3826d719	3.977781e-05
139	0x381ac63b	3.6901078e-05
140	0x382c587a	4.1090396e-05
141	0x384e124a	4.913126e-05
142	0x38495f28	4.8010756e-05
143	0x3833fcc1	4.291232e-05
144	0x37a94675	2.0179179e-05
145	0x37bb2596	2.230964e-05
146	0x37c98876	2.4024612e-05
147	0x37fad0d0	2.9899558e-05
148	0x3817b252	3.616728e-05
149	0x38160124	3.576385e-05
150	0x37f57141	2.9259014e-05
151	0x37de3b60	2.6492111e-05
152	0x37acbaed	2.0591042e-05
153	0x379896b6	1.8189992e-05
154	0x378fecb2	1.7157148e-05
155	0x3770793e	1.4333344e-05
156	0x37ea6fb2	2.7946986e-05
157	0x3807e883	3.240305e-05
158	0x3815c94a	3.5711833e-05
159	0x38476cdb	4.7546677e-05
160	0x3857f632	5.148928e-05
161	0x38557a72	5.0897193e-05
162	0x382a6148	4.062176e-05
163	0x3821515a	3.8461156e-05
164	0x380a2ab3	3.294153e-05
165	0x37f684a6	2.9387254e-05
166	0x37db69de	2.6156133e-05
167	0x37bbf43e	2.2405871e-05
168	0x3807808d	3.230623e-05
169	0x3812ded3	3.5016634e-05
170	0x381c8dba	3.732529e-05
171	0x383f405f	4.55979e-05
172	0x384321d6	4.6523135e-05
173	0x385f0988	5.317622e-05
174	0x3839086b	4.4115277e-05
175	0x3828802a	4.0173683e-05
176	0x38162221	3.5794572e-05
177	0x380703f3	3.2190186e-05
178	0x37cbab61	2.427929e-05
179	0x37cb1e3d	2.4213567e-05
180	0x380cc3f4	3.3561097e-05
181	0x381f8bf7	3.8038906e-05
182	0x3832110b	4.245438e-05
183	0x383acc55	4.4536155e-05
184	0x386294f0	5.4021308e-05
185	0x3883b61f	6.2804895e-05
186	0x3861d418	5.3841708e-05
187	0x382b089f	4.0777606e-05
188	0x381b0e40	3.696815e-05
189	0x3817176c	3.602302e-05
190	0x37fdc9af	3.0253866e-05
191	0x37f717c0	2.9455754e-05
192	0x38416c82	4.611584e-05
193	0x3864ef7d	5.4582477e-05
194	0x384e9e32	4.9261558e-05
195	0x385dc11d	5.2870357e-05
196	0x38974bc8	7.2143564e-05
197	0x3898c9de	7.2855255e-05
198	0x3879fa22	5.959918e-05
199	0x384a3c49	4.8216698e-05
200	0x3832e512	4.2651845e-05
201	0x3819d9a9	3.6680754e-05
202	0x380913e9	3.2681888e-05
203	0x380ac0f8	3.308148e-05
204	0x387e0ed3	6.0572125e-05
205	0x38a4bd29	7.855363e-05
206	0x387356ac	5.8016434e-05
207	0x3876d54d	5.8849622e-05
208	0x388cc796	6.712896e-05
209	0x38893105	6.5418e-05
210	0x3891b86c	6.94849e-05
211	0x388f14e3	6.822662e-05
212	0x385185fb	4.9954262e-05
213	0x382c6314	4.110027e-05
214	0x38082434	3.2458644e-05
215	0x381f45b7	3.797348e-05
216	0x38244f8f	3.917474e-05
217	0x385526f3	5.081943e-05
218	0x3835f0f5	4.337817e-05
219	0x386548b7	5.4665576e-05
220	0x38777dab	5.9006426e-05
221	0x3874292c	5.8212478e-05
222	0x388b9972	6.656618e-05
223	0x388d4859	6.73688e-05
224	0x3855654c	5.0877497e-05
225	0x38397dae	4.4224485e-05
226	0x38213bc5	3.8441056e-05
227	0x3858564e	5.157879e-05
228	0x37dead13	2.6545056e-05
229	0x37fb5711	2.9962075e-05
230	0x3805385f	3.176217e-05
231	0x3823d5b1	3.9061244e-05
232	0x38442cc7	4.6771744e-05
233	0x3854dcb0	5.075027e-05
234	0x38540fc3	5.0559418e-05
235	0x3852cd62	5.025918e-05
236	0x384e0d9b	4.91269e-05
237	0x3842ef1d	4.6475896e-05
238	0x3835ec91	4.3374082e-05
239	0x3859482a	5.180404e-05
240	0x37d469e8	2.5321686e-05
241	0x37f26e5e	2.8900042e-05
242	0x37e5cf05	2.7395328e-05
243	0x37f11077	2.8737106e-05
244	0x3815a124	3.5674442e-05
245	0x3837f470	4.385825e-05
246	0x3842cbde	4.644307e-05
247	0x386a723c	5.5896337e-05
248	0x3872a749	5.7853093e-05
249	0x387410f5	5.8189926e-05
250	0x3874bc43	5.8349466e-05
251	0x3881059e	6.1522456e-05
252	0x37e190ee	2.6889578e-05
253	0x3816cc63	3.5953137e-05
254	0x380c66c9	3.3474327e-05
255	0x37ecd75c	2.8233677e-05

exp_avg f4 [16]
0	0xbb115e11	-0.0022181312
1	0x3a16cc1a	0.00057524594
2	0x3acd4a2d	0.0015662365
3	0x3a4b791f	0.0007761884
4	0xbad6f5cd	-0.0016400159
5	0xba0bbc0d	-0.0005330451
6	0x3aa32637	0.0012447302
7	0xb98d98ec	-0.0002700755
8	0xbb37803d	-0.002800002
9	0x3b7c7980	0.0038524568
10	0xba9adf14	-0.001181575
11	0xba455990	-0.00075282995
12	0xbadc2c56	-0.0016797881
13	0x3a8632d9	0.0010238542
14	0x9d3e7bbb	-2.5210258e-21
15	0xbb301718	-0.0026869234

exp_avg_sq f4 [16]
0	0x38f1088e	0.00011493369
1	0x38af3800	8.355081e-05
2	0x37c674f6	2.3657904e-05
3	0x38dc9f3d	0.00010520078
4	0x38db3843	0.00010453213
5	0x38da6e4a	0.00010415593
6	0x38e0bc15	0.00010716185
7	0x38c31002	9.301306e-05
8	0x38afc824	8.3819294e-05
9	0x38e1cbdf	0.0001076681
10	0x38cb99d6	9.7084485e-05
11	0x38bf11bb	9.110892e-05
12	0x38c30d7e	9.300838e-05
13	0x38d80fae	0.00010302603
14	0x30a093e3	1.1683564e-09
15	0x38c01a12	9.1601294e-05
