saved_models/convlstm.ckpt (torch, 723721 bytes, 31 tensors)

model.convlstm.cell_list.0.conv.weight f4 [64, 34, 3, 3]
000000 b9 a8 ad bb d4 ae cd bb 20 ff 07 bc d6 3a cf bb
       -0.0052996543 -0.0062769447 -0.008300573 -0.0063241525
000010 34 da 0b bc 91 49 da bb 9a 8f 02 bc 8e 7c 9d bb
       -0.00853591 -0.006661602 -0.007968808 -0.004806108
000020 8f 6f d7 ba 6a 6d b4 bb 62 7f 7e bb 23 95 b3 bb
       -0.0016436445 -0.0055062072 -0.003883325 -0.005480425
000030 40 a9 95 bb 5e 3b b9 bb a7 41 69 bb c3 b8 a5 bb
       -0.0045672953 -0.005652829 -0.003559211 -0.0050574257
000040 a5 0d dd ba eb ef 88 ba b0 82 bb bb f7 f1 89 bb
       -0.0016865028 -0.0010447478 -0.0057223663 -0.0042097527
000050 36 e0 bb bb ca 91 46 bb b3 90 78 bb 52 87 bb ba
       -0.005733515 -0.00302993 -0.0037928044 -0.0014307296
000060 64 6f 84 bb ae 94 6f bb 87 f0 7e bb e1 f2 27 bc
       -0.004041599 -0.0036557126 -0.003890069 -0.010250778
000070 73 ce 1a bc 4c 52 50 bc 78 a8 84 bb 9e d7 24 bc
       -0.009448635 -0.012714934 -0.0040484034 -0.010061173
000080 73 67 d9 bb 26 03 f6 bb 86 d6 1b bc ac 96 05 bc
       -0.0066346466 -0.0075076995 -0.009511596 -0.008153599
000090 f8 e6 80 bc d0 1b 8d bc 21 f8 9b bc df 52 91 bc
       -0.015735134 -0.017225176 -0.019039216 -0.017739711
0000a0 59 d7 91 bc ce 7f 95 bc 51 ee a9 bc 7b 8c a2 bc
       -0.017802881 -0.018249419 -0.02074352 -0.019842377
0000b0 77 c6 9c bc f1 00 ed 3b 0f 69 b7 3b 9b 75 7d 3b
       -0.019137604 0.0072327782 0.0055972408 0.0038674835
0000c0 90 58 e5 3b 42 bb af 3b 73 d9 81 3b e3 fc 9b 3b
       0.006999083 0.005362899 0.0039626895 0.004760371
0000d0 16 68 87 3b c0 04 bc 3b 65 8f 47 3b e7 32 04 3b
       0.004132281 0.005737871 0.003045046 0.0020171942
0000e0 75 26 0a 3a 22 47 e1 3a 0a a5 92 3a c0 c8 52 ba
       0.0005270013 0.0017187337 0.0011188101 -0.00080407783
0000f0 db 3c d2 39 57 2f 14 ba 3b ba 87 ba 7d c4 60 3b
       0.00040099662 -0.0005652806 -0.0010355184 0.0034296804
000100 ba c8 63 3b 8a 8b 6d 3b fc 8b 89 3b be 6d 4a 3b
       0.0034757094 0.0036246502 0.0041975956 0.0030888165
000110 eb b3 6d 3b bb c0 24 3b d1 ba 72 3b 21 97 7b 3b
       0.003627057 0.002513929 0.003703762 0.003838964
000120 59 92 ac bb fd 44 b3 bb 9a e2 bc bb 6f 96 bc bb
       -0.0052664694 -0.0054708705 -0.0057643177 -0.005755238
000130 e5 92 c4 bb e9 d6 cc bb 17 46 df bb 13 dd e5 bb
       -0.0059989565 -0.006251205 -0.0068137753 -0.0070148795
000140 46 f3 eb bb d7 a4 47 3c 68 54 5a 3c ea 71 55 3c
       -0.0072006313 0.012185297 0.013325788 0.0130276475
000150 c7 16 4d 3c ee fe 56 3c 29 a5 59 3c 25 7e 30 3c
       0.012517638 0.013122303 0.013284006 0.010772263
000160 74 18 41 3c a2 ea 45 3c 54 c1 5a bc 3c 4f 5b bc
       0.011785615 0.012079867 -0.013351757 -0.01338559
000170 a6 81 5e bc 2b d7 5e bc 9a 81 67 bc 79 84 6e bc
       -0.013580715 -0.013601105 -0.0141300205 -0.014557951
000180 8a 04 67 bc 66 14 6f bc 51 db 72 bc 72 5b 96 bb
       -0.014100203 -0.014592266 -0.014822797 -0.004588538
000190 56 aa 63 bb 30 59 e1 ba bd e1 05 bb bd 2a 19 bb
       -0.003473898 -0.0017192718 -0.002042874 -0.0023371421
0001a0 3e 1c 70 b9 92 99 12 bb 79 b4 f4 ba f8 47 28 b9
       -0.00022898705 -0.0022369367 -0.0018669508 -0.00016048539
0001b0 2a ae b8 bb 9b 4a c0 bb 87 ad ca bb 6b ca c8 bb
       -0.0056359963 -0.0058682687 -0.006185237 -0.0061276457
0001c0 60 c5 d2 bb a7 8c dd bb 23 1b ec bb b9 23 f5 bb
       -0.0064322203 -0.006761152 -0.0072053834 -0.007481065
0001d0 ef 35 fc bb ff 5e a0 bc 13 10 8c bc a9 6d 77 bc
       -0.007696859 -0.019576548 -0.017097509 -0.015101829
0001e0 e7 7a ad bc 12 4d 9e bc 4d ed 84 bc 58 62 cf bc
       -0.021176768 -0.01932386 -0.016226435 -0.025315449
0001f0 9c ce bd bc 60 1b a5 bc 49 d6 62 3a 68 cf b0 ba
       -0.023169808 -0.020154655 0.0008653147 -0.0013489546
000200 cd 69 6e 37 7e 24 3e 3b f6 41 05 3b 2c 5a c8 ba
       1.4210539e-05 0.002901345 0.0020333505 -0.0015285662
000210 df 63 66 3a 7b 83 e4 39 a7 2d 6f bb d9 ac 67 bb
       0.00087886857 0.0004358551 -0.0036495717 -0.0035350828
000220 4d 48 80 bb c4 e3 86 bb 96 a9 86 bb 94 b7 75 bb
       -0.003914869 -0.0041165072 -0.0041095717 -0.0037493454
000230 ee 92 27 bb 08 13 18 bc b0 fc c6 bb 3e 34 ee bb
       -0.0025569755 -0.009281881 -0.006072603 -0.0072694113
000240 38 87 94 3b b1 5f a7 3b 7d 7e 99 3b 04 a8 40 3b
       0.004532721 0.005107843 0.004684268 0.002939702
000250 24 0c 3a 3b 6f 62 1d 3b 9b ec 4b 3a cf 8b 97 3a
       0.0028388584 0.002401497 0.00077790924 0.0011562052
000260 0f 12 c2 3a ad 54 58 bb e9 fc f0 ba 88 39 2d bb
       0.0014806407 -0.0033009455 -0.001838592 -0.0026431996
000270 e5 15 31 bb 47 55 3f bb cd fe 36 bb 41 60 5b bb
       -0.0027021107 -0.0029195116 -0.002792287 -0.003347412
000280 9f 96 2e bb c0 9c 7f bb 05 80 24 3b b3 c6 21 3b
       -0.002664007 -0.0039003342 0.002510072 0.0024685084
000290 7d 78 19 3b f2 06 03 3b 68 ae 10 3b dd 04 1f 3b
       0.0023417764 0.0019993153 0.002207661 0.0024264373
0002a0 68 20 22 3b ad af 45 3b 78 22 5b 3b 07 fb 3f 3b
       0.0024738554 0.0030164525 0.0033437293 0.002929391
0002b0 11 ad 55 3b 24 b4 53 3b f7 93 0e 3b fc 14 25 3b
       0.0032604376 0.0032303417 0.0021755674 0.002518951
0002c0 60 03 31 3b 18 6d be 3a bc 48 f8 3a 9a 40 14 3b
       0.0027010068 0.0014528362 0.0018942575 0.0022621513
0002d0 8e 0e 0d 3b ea 58 18 3b ae 68 1a 3b a1 7f f3 3a
       0.0021523568 0.0023246356 0.002356093 0.0018577465
0002e0 a9 b8 05 3b b0 56 0b 3b d2 a7 f3 3a 4b 57 06 3b
       0.0020404255 0.0021261387 0.0018589443 0.0020498808
0002f0 3a b8 0d 3b c0 4e cd bb 1f 5f d2 bb b4 f3 cc bb
       0.00216247 -0.0062654912 -0.0064200307 -0.0062546376
000300 1e 76 cc bb 81 ea ca bb f8 fd bf bb a6 10 c2 bb
       -0.0062396666 -0.006192506 -0.005859133 -0.005922395
000310 c9 7f b8 bb a5 82 a8 bb 21 a9 4a bb 2a 19 45 bb
       -0.0056304676 -0.005142527 -0.0030923563 -0.0030074813
000320 88 b6 30 bb 80 cb 59 bb c6 57 56 bb df 15 4d bb
       -0.0026964266 -0.0033232868 -0.0032706126 -0.0031293554
000330 c1 e3 6f bb 18 6b 74 bb 68 f1 75 bb bc a4 49 3b
       -0.0036604258 -0.0037295278 -0.0037527923 0.0030768355
000340 96 33 59 3b 47 59 68 3b ce 5e 40 3b 3a d8 5c 3b
       0.003314232 0.0035453604 0.0029353383 0.0033698217
000350 c0 98 72 3b fb 9d 5b 3b 03 ba 77 3b e9 4a 83 3b
       0.0037017316 0.0033510912 0.003780008 0.0040067327
000360 1c fa 65 ba 7d 2b 59 ba 24 4f 7d ba 76 a8 be ba
       -0.0008772926 -0.00082843733 -0.0009662977 -0.0014546055
000370 46 dd c3 ba a6 b9 ca ba 9c 64 13 bb 20 9d 13 bb
       -0.0014943264 -0.0015466704 -0.0022490388 -0.0022524074
000380 dd 9e 07 bb 01 e7 ed 3a 8d d1 f8 3a 78 f1 d4 3a
       -0.0020694055 0.001815051 0.001898335 0.001624628
000390 03 e3 bd 3a 54 75 cd 3a a5 46 a7 3a 61 02 88 3a
       0.001448721 0.0015675225 0.0012762143 0.0010376686
0003a0 c1 ab 78 3a 3d 40 0e 3a 5c b9 37 3b 21 9d 57 3b
       0.00094860425 0.00054264424 0.0028034067 0.0032900053
0003b0 29 2f 67 3b ef 0b 29 3b a4 91 47 3b 2a 3f 5f 3b
       0.0035275912 0.0025794466 0.0030451799 0.0034064748
0003c0 20 8b 14 3b 16 d8 3b 3b 2e 87 5d 3b 41 64 d9 ba
       0.0022665933 0.0028662733 0.0033802497 -0.0016585664
0003d0 61 f8 b2 ba 92 a7 92 ba 59 4f e4 ba 05 36 dc ba
       -0.0013654345 -0.0011188856 -0.0017418667 -0.0016800767
0003e0 ff 4f e5 ba a8 c1 fa ba 7f a9 0e bb c3 83 1f bb
       -0.0017495154 -0.00191312 -0.0021768508 -0.002434001
0003f0 54 c6 3a ba d7 a4 66 ba 6c 53 8e ba 63 00 42 b8
       -0.000712489 -0.0008798367 -0.0010858602 -4.6253565e-05

model.convlstm.cell_list.0.conv.bias f4 [64]
000000 3b ae 85 3c 61 a7 6e 3c 22 2b 07 3c de 62 09 3d
       0.016318431 0.014566273 0.00825003 0.033541553
000010 61 ed 75 3c db 7b 61 3c f6 a6 43 3c b6 5d dd 3c
       0.015010209 0.01376244 0.011941662 0.027022224
000020 b7 f8 ca 3c 72 ce 19 3c b1 6b bb 3c 93 39 a4 3c
       0.0247768 0.009387599 0.0228785 0.020046985
000030 2b 6c 6a 3c ee ff ce 3c 4b 93 4e 3c b4 7b a3 3c
       0.014308016 0.025268521 0.01260836 0.019956447
000040 32 e1 d2 3c 9a 6c 53 3c fe 78 d9 3b 00 cd f0 3c
       0.025742147 0.012904311 0.006636738 0.029394627
000050 ee cc 87 3c fd b3 4b 3c cf 09 e8 ba b7 df 83 3c
       0.01657721 0.012433049 -0.0017703119 0.016097886
000060 3c 91 9b 3c 23 fd 05 3c 05 23 cf 3c d8 bd 6c 3c
       0.018990152 0.008178028 0.025285253 0.014449559
000070 c0 e8 19 3c 2d 6c cb 3c 62 36 3c 3c 79 e9 07 3c
       0.009393871 0.024831856 0.011487575 0.00829541
000080 1f 8e a2 3c 4d 2d 65 3c 2c e4 25 3c 0c 64 1c 3d
       0.01984316 0.013987851 0.010125201 0.03818135
000090 0f 5b b7 3c 12 e5 91 3c 01 23 76 3b e8 1d c2 3c
       0.022382287 0.017809425 0.0037557485 0.023695901
0000a0 b8 02 d9 3c db da 9b 3c f4 20 19 3d 95 ba b0 3c
       0.026490554 0.019025257 0.037384942 0.021573344
0000b0 94 3a 80 3c e1 69 f1 3c d4 69 53 3c 62 a2 d5 3c
       0.015652932 0.029469432 0.012903649 0.026078407
0000c0 5f 01 fc 3b a4 67 b0 3b d3 c2 18 3d c5 a3 8c bc
       0.007690593 0.0053834487 0.037295174 -0.017167935
0000d0 d2 34 a4 bc f0 03 04 bc dc f7 5b bc 17 ac 88 bc
       -0.020044718 -0.008057579 -0.0134257935 -0.016683621
0000e0 a9 01 d1 3c 30 f5 39 3c 9b f5 9e bc 5b 47 29 3d
       0.025513487 0.011349961 -0.019404223 0.041327816
0000f0 85 c3 22 3c e8 67 0c 3c 52 1d 88 3c a3 43 72 ba
       0.009934311 0.008569695 0.016615544 -0.0009241646

model.conv1.weight f4 [16, 16, 3, 3]
000000 3b ba 50 3c d5 a7 93 3c 9b f5 7f 3c e3 89 8b 3c
       0.012739713 0.018024364 0.015622522 0.017033523
000010 c9 ec 8d 3c f7 e4 10 3c 0b 39 4b 3c 12 73 a0 3c
       0.017324822 0.008843652 0.012403737 0.01958612
000020 c7 76 65 3c 60 8c dd bb 88 50 f7 bb d0 5d 03 bc
       0.0140053695 -0.006761119 -0.007547442 -0.008017972
000030 53 d5 eb bb be 3a fa bb f3 f9 03 bc 37 ff 02 bc
       -0.007197061 -0.007636397 -0.008055198 -0.007995418
000040 bd 9a 01 bc e4 97 fd bb 1d 8b 1e 3c bb a2 1f 3c
       -0.007910428 -0.007739054 0.009676722 0.009743388
000050 88 ef 1e 3c 89 e4 20 3c 54 5d 26 3c 98 21 25 3c
       0.009700663 0.009820112 0.010154087 0.01007881
000060 89 4b 25 3c ca ce 20 3c c4 29 28 3c 7e fa a1 bc
       0.01008881 0.009814927 0.010263864 -0.019772764
000070 52 f8 a1 bc 85 da a1 bc ae c0 a5 bc c2 0d ac bc
       -0.019771729 -0.019757519 -0.020233478 -0.021002654
000080 18 64 90 bc d7 bd 9a bc 74 ee 8d bc 69 fb 87 bc
       -0.017625853 -0.01888935 -0.017325617 -0.016599374
000090 66 75 86 bc cf c6 82 bc 70 9f 83 bc 3a 9a 8a bc
       -0.016413402 -0.01596394 -0.016067237 -0.016919244
0000a0 bd a3 89 bc a8 6c 8f bc a5 64 92 bc 26 d6 8c bc
       -0.01680171 -0.017507866 -0.017870257 -0.017191958
0000b0 32 6c 98 bc ac 44 6d 3c 6a a5 66 3c f4 c9 78 3c
       -0.018606279 0.014481705 0.014077524 0.015184868
0000c0 0c 8c 64 3c 2d d7 7f 3c 2a 51 86 3c af cd 6a 3c
       0.013949405 0.015615267 0.016396124 0.014331265
0000d0 6f 76 80 3c 1d f8 81 3c 78 5c 59 bc f9 69 67 bc
       0.015681474 0.01586538 -0.013266675 -0.014124387
0000e0 75 fe 65 bc b1 db 67 bc f3 6c 5e bc 8a a7 69 bc
       -0.014037718 -0.0141515 -0.01357578 -0.014261136
0000f0 4f 88 5e bc b7 b0 74 bc 03 09 70 bc 3d 9e 22 3c
       -0.013582303 -0.01493471 -0.014650586 0.009925422
000100 89 69 27 3c a5 aa 31 3c 69 75 20 3c f1 82 22 3c
       0.010218033 0.0108439075 0.009793618 0.009918914
000110 ff 00 26 3c 8e 22 0e 3c 28 61 19 3c ed a1 1c 3c
       0.010132073 0.008675231 0.009361543 0.0095600905
000120 b0 ac 04 bc 6b 00 0d bc ee 3a 13 bc e3 fa 10 bc
       -0.0080978125 -0.008606057 -0.008986218 -0.008848879
000130 cf 32 17 bc c7 b1 15 bc f0 a1 0d bc 8b 4c 0f bc
       -0.009228422 -0.009136624 -0.008644566 -0.008746277
000140 d7 5f 06 bc 81 46 6f ba 2b 23 18 ba 62 e1 41 3a
       -0.008201561 -0.00091276324 -0.000580358 0.00073959504
000150 33 a7 3a ba dd 51 1a 39 36 e0 62 39 db 3b c8 b9
       -0.00071202515 0.00014717081 0.00021636565 -0.00038191568
000160 c5 4c b2 ba f8 f5 33 b8 9c ce 13 bc 8e 99 1e bc
       -0.0013603201 -4.2906002e-05 -0.0090214275 -0.009680165
000170 e0 ab 24 bc fc 3e 11 bc d6 2a 1a bc 6a 14 17 bc
       -0.010050744 -0.008865114 -0.009409627 -0.009221176
000180 bc 94 0e bc 69 71 0f bc ed 59 05 bc 09 13 94 3c
       -0.008702453 -0.008755066 -0.008139116 0.018075483
000190 1e 97 97 3c 34 bd 97 3c 71 7e 9c 3c db a0 9a 3c
       0.018504675 0.018522836 0.01910326 0.01887553
0001a0 f5 fa 99 3c f2 eb 9e 3c d3 c9 9f 3c 51 38 9a 3c
       0.018796423 0.019399617 0.019505417 0.018825682
0001b0 34 ce 34 3c fe 7e e3 3b eb 01 ee 3b c1 bc f2 3b
       0.011035491 0.006942629 0.0072634122 0.007407755
0001c0 0e 8c 15 3c 40 e9 33 3c 13 bc 53 3c fb 07 f2 3b
       0.00912763 0.010980904 0.012923258 0.0073862053
0001d0 88 51 45 3c c1 7b bb bb 37 14 b4 bb 17 cf 95 bb
       0.012043364 -0.0057215397 -0.005495574 -0.004571806
0001e0 b9 93 c2 bb 0d 4f a4 bb a5 b8 9b bb 58 61 97 bb
       -0.00593802 -0.0050143064 -0.004752236 -0.0046197586
0001f0 af 39 9c bb 11 07 84 bb 9a 88 c5 bb fd aa cd bb
       -0.0047676186 -0.0040291627 -0.006028247 -0.006276487
000200 b6 d7 c0 bb 58 d8 d7 bb b8 63 d9 bb a9 ee c3 bb
       -0.0058850897 -0.0065870695 -0.006634202 -0.0059793782
000210 d0 30 e7 bb 70 a2 e3 bb 49 83 ca bb 4d d3 28 bc
       -0.0070553795 -0.0069468543 -0.006180201 -0.010304284
000220 bf 4b 1b bc 9c cb 2b bc b7 43 34 bc e8 63 24 bc
       -0.0094785085 -0.010485556 -0.011002473 -0.010033585
000230 03 ad 12 bc 40 39 28 bc 51 12 1c bc 99 e4 2b bc
       -0.008952382 -0.010267556 -0.009525851 -0.010491514
000240 4c 36 11 bc 3f 95 18 bc e1 cc 19 bc 76 11 54 bc
       -0.008863043 -0.009312927 -0.009387226 -0.012943616
000250 c5 8c 4a bc b3 30 2e bc 18 71 82 bc a0 be 83 bc
       -0.012362664 -0.010631728 -0.015923068 -0.016082108
000260 d6 c4 4c bc 91 59 ce 3c c6 03 f5 3c 62 e9 eb 3c
       -0.012498101 0.025189193 0.029909026 0.028797809
000270 f5 e7 cc 3c 54 6f f1 3c 7c fc 0b 3d f2 14 bc 3c
       0.02501295 0.02947203 0.034176335 0.022959206
000280 31 db f9 3c 76 fe 09 3d e5 3e 4a 3b b8 5e 93 3b
       0.030500026 0.03368994 0.0030860242 0.0044973753
000290 7b c0 9c 3b e6 51 7c 3a be e4 12 3b 63 a5 3c 3b
       0.0047836876 0.0009625241 0.0022414173 0.0028785102
0002a0 a5 bd 4a ba 10 8c ab 39 7a ee 21 3a be ab f8 3c
       -0.0007733948 0.00032720016 0.00061771984 0.03035533
0002b0 17 81 f2 3c 40 22 0c 3d 61 8d e0 3c f4 e6 f9 3c
       0.02960257 0.03421235 0.027411165 0.030505635
0002c0 bf 92 05 3d 53 78 b0 3c d6 62 d4 3c db 12 ed 3c
       0.03261065 0.02154175 0.025926035 0.028939655
0002d0 af 2e f4 bb e9 ea fb bb 26 1f f2 bb bf 69 a9 bb
       -0.007451854 -0.0076879156 -0.007388967 -0.0051700766
0002e0 e2 67 a3 bb 34 8e 9d bb 06 50 5f bb bc 3a 2b bb
       -0.004986749 -0.0048082117 -0.0034074797 -0.0026127538
0002f0 8b 12 39 bb 75 c2 9d bc 27 c1 96 bc 85 16 71 bc
       -0.0028239812 -0.019257763 -0.01840265 -0.014714842
000300 43 ed b6 bc d4 9e ac bc 83 08 9a bc d3 a8 b9 bc
       -0.022329932 -0.021071829 -0.018802887 -0.02266351
000310 b4 ef a5 bc d1 99 ab bc ab 11 d3 3c 20 97 c2 3c
       -0.0202559 -0.020947369 0.02576526 0.023753703
000320 63 65 cd 3c 60 fb 00 3d 80 84 f1 3c c0 38 e0 3c
       0.025072759 0.03148973 0.029482126 0.02737081
000330 e6 93 f4 3c a2 44 fb 3c 3d 82 07 3d 01 e3 17 3d
       0.02985568 0.030672375 0.03308319 0.037081722
000340 0c d5 1c 3d 3d f9 13 3d 3c a8 15 3d a6 a9 1b 3d
       0.038289115 0.036126364 0.036537394 0.038003586
000350 26 bf 17 3d 69 83 08 3d a3 69 11 3d 6e 77 07 3d
       0.037047528 0.033328447 0.035501134 0.03307288
000360 1c 35 3b 3d f1 91 45 3d 51 5e 46 3d af a8 39 3d
       0.045704946 0.048234884 0.04842979 0.045326885
000370 3a 4f 44 3d 47 72 4a 3d 63 f5 31 3d 00 ba 3f 3d
       0.04792712 0.04942539 0.04344691 0.046808243
000380 98 f4 3f 3d f3 c0 03 3d e2 d1 f5 3c f0 ca d4 3c
       0.046864122 0.032166433 0.030007306 0.025975674
000390 76 4d 09 3d bf 98 11 3d d1 a5 06 3d 34 c2 d5 3c
       0.033521138 0.03554606 0.03287298 0.02609358
0003a0 1b 22 cb 3c 2f 07 09 3d ab 99 04 3d 87 67 06 3d
       0.024796536 0.033454116 0.03237311 0.032813575
0003b0 91 c0 f5 3c ca eb 03 3d dc c8 0c 3d e8 c5 06 3d
       0.02999905 0.032207288 0.034371242 0.03290358
0003c0 f7 b7 f0 3c ba 75 0d 3d 32 2f 11 3d 6b 04 15 ba
       0.029384596 0.0345361 0.0354454 -0.0005684557
0003d0 d3 09 98 ba 76 d6 11 ba 12 4a d5 39 36 3c 06 ba
       -0.0011599608 -0.0005563268 0.00040681713 -0.00051206665
0003e0 69 75 2a ba e9 1a 12 3b 19 2f d8 39 fc 64 ad b9
       -0.0006502481 0.0022293872 0.0004123382 -0.0003307237
0003f0 0d 0e fd bc f0 cb f6 bc 3f 28 e3 bc c2 53 07 bd
       -0.030890489 -0.030126542 -0.027729152 -0.033038862

model.conv1.bias f4 [16]
000000 04 ff 67 bc b4 20 a8 3c 6e c6 ba 3c be 65 5e bb
       -0.014159922 0.020523407 0.022799697 -0.0033935155
000010 69 d8 09 3b a8 7b f8 3b 5d 04 2a 3d f9 97 06 3d
       0.0021033532 0.0075831003 0.041508067 0.032859776
000020 1c 8f 0d 3c 81 8b 87 3c cf ff 72 3b 11 5c 0e 3d
       0.008640077 0.016546013 0.0037078743 0.03475577
000030 9f 95 56 3d 61 f8 6f 3d 1b a0 df 3c 06 1d 9f 3b
       0.052388784 0.058586482 0.027298024 0.004855755

model.fc1.weight f4 [16, 2304]
000000 fe a5 ee b9 aa be 49 ba 05 8b 32 ba 62 c8 23 ba
       -0.0004551857 -0.00076959527 -0.00068108767 -0.0006247816
000010 88 b0 2e ba ff b2 63 ba 19 d3 6a ba 3e fa b9 b9
       -0.00066638784 -0.0008686035 -0.00089578476 -0.00035472395
000020 ca d2 6e b9 8a 27 d2 b9 c5 59 cf b9 bf a3 ce b9
       -0.00022775974 -0.0004008378 -0.00039549 -0.00039413382
000030 e9 a8 85 ba 7f 08 b1 ba af 03 9f ba 3d da 9e ba
       -0.0010197434 -0.001350656 -0.0012131835 -0.0012119483
000040 fc d4 a9 ba df b5 94 ba d8 44 80 ba 1c d7 cf b9
       -0.0012957151 -0.0011345706 -0.0009786142 -0.00039642386
000050 28 66 6a b9 cb f3 e4 b9 e4 50 f4 b9 c5 2b 4a ba
       -0.00022354035 -0.0004366919 -0.00046599575 -0.00077122106
000060 b5 49 3e ba 6d 57 4e ba 60 bb 85 ba 01 22 ac ba
       -0.0007258908 -0.0007871304 -0.0010202937 -0.0013132693
000070 c0 78 c1 ba 8b f4 7c ba 82 4b 47 b9 14 fa 2e b7
       -0.0014760718 -0.0009649477 -0.00019006248 -1.0429434e-05
000080 78 5c 63 38 9e e6 9a 38 db db 5c b9 ee a1 34 ba
       5.4207136e-05 7.386248e-05 -0.00021062738 -0.00068905845
000090 15 b0 63 ba f6 db 73 ba af 90 68 ba c2 03 70 ba
       -0.0008685601 -0.0009302491 -0.0008871657 -0.00091558334
0000a0 bd 7a 89 ba 79 6f 63 ba 84 60 79 ba 45 56 67 ba
       -0.0010488849 -0.00086759735 -0.0009512978 -0.0008824806
0000b0 32 ea 40 ba f6 3f cd b9 f3 21 dd b9 95 4c 2d ba
       -0.00073591166 -0.00039148302 -0.000421777 -0.0006610838
0000c0 19 f6 0a b9 36 21 e6 b9 66 8a a9 b9 cd 03 ec b9
       -0.00013252384 -0.00043893763 -0.00032337307 -0.0004501626
0000d0 f9 93 6f ba e5 87 a8 ba 1b 5f 0f bb 86 8f 20 bb
       -0.0009139176 -0.0012857883 -0.0021876756 -0.002449961
0000e0 72 65 ed ba a6 a4 9f ba d9 ce 94 ba 6e 88 6e ba
       -0.0018111898 -0.0012179806 -0.0011353149 -0.0009099309
0000f0 0e 3e e8 39 c9 ab 3c b8 ce f0 4a b9 42 68 eb b9
       0.00044296723 -4.498268e-05 -0.00019353928 -0.0004490037
000100 9b 7f 6e ba f9 1f ce ba 8c 33 18 bb bb a8 40 bb
       -0.0009097994 -0.0015726081 -0.0023224084 -0.0029397446
000110 4a 74 22 bb 95 13 f3 ba 1f 2a e2 ba 91 42 84 ba
       -0.0024788552 -0.0018545265 -0.0017254985 -0.0010090639
000120 7c ce 4b 39 b0 94 89 b9 09 ac 3f ba c5 ca 87 ba
       0.0001943651 -0.00026241457 -0.0007311707 -0.0010360113
000130 e7 ad b2 ba cf aa 01 bb d5 04 32 bb 5b 71 35 bb
       -0.0013632149 -0.0019785648 -0.0027163525 -0.0027685973
000140 61 95 26 bb 26 6c 16 bb 0f 6e f2 ba 56 5d 85 ba
       -0.0025418627 -0.0022952645 -0.0018495935 -0.0010174911
000150 7c 87 05 ba af 64 2d ba 12 4b 42 ba e8 fa 16 ba
       -0.0005093736 -0.00066144293 -0.0007411699 -0.0005759434
000160 52 6d 42 ba 65 8c a7 ba da c9 06 bb 5a 58 29 bb
       -0.00074168027 -0.001278293 -0.002056709 -0.0025840015
000170 0a b3 14 bb 17 bf 07 bb de 6d ed ba 0e 5c 8b ba
       -0.0022689723 -0.0020713264 -0.0018114408 -0.0010632293
000180 17 e9 39 ba 4a 7c 48 ba 70 05 10 ba 6c 72 22 ba
       -0.0007091923 -0.0007647915 -0.00054939743 -0.000619686
000190 5b 99 61 ba a4 bd 70 ba 7e 77 ce ba 7d 71 e4 ba
       -0.00086059206 -0.0009183532 -0.0015752164 -0.0017428842
0001a0 a2 1a e3 ba 8f 74 e2 ba c2 8e ea ba b7 7d 9e ba
       -0.0017326663 -0.0017277169 -0.0017895328 -0.0012091909
0001b0 6e 07 3e ba 05 b4 a2 ba a4 7e ad ba 64 c4 bf ba
       -0.0007249032 -0.0012413269 -0.0013236594 -0.0014630673
0001c0 f4 4c c2 ba 9b 88 a9 ba 7e ae b0 ba a1 45 51 ba
       -0.0014823959 -0.0012934388 -0.0013479737 -0.0007983093
0001d0 50 c0 2c ba 8b e9 99 ba 39 b6 ee ba c1 6a e6 ba
       -0.0006589936 -0.0011742575 -0.0018212266 -0.0017579423
0001e0 db a3 42 ba 5e 7a a9 ba ea 26 e5 ba 39 7b 04 bb
       -0.0007424929 -0.0012930145 -0.0017482911 -0.0020215048
0001f0 40 47 ee ba 79 39 c9 ba 2b b8 cb ba 4b d4 84 ba
       -0.0018179193 -0.0015352211 -0.0015542557 -0.0010134069
000200 5f 34 08 ba 43 31 97 ba b8 1d df ba 30 b1 d8 ba
       -0.0005195792 -0.0011535067 -0.0017022407 -0.0016532298
000210 15 99 7c ba fd b1 b7 ba 8c 7b d1 ba 07 b2 ec ba
       -0.0009635848 -0.0014014837 -0.0015982254 -0.0018058427
000220 10 49 dc ba e4 16 b5 ba e3 f8 c3 ba 17 e6 ae ba
       -0.0016806442 -0.0013816026 -0.0014951493 -0.0013343719
000230 d0 39 66 ba 31 97 77 ba 07 ae 9a ba 5e 38 96 ba
       -0.00087824184 -0.00094448315 -0.0011801132 -0.001146089
000240 81 f7 e8 3b 81 a1 16 3c 47 51 1a 3c 68 6f 15 3c
       0.007109583 0.009193779 0.009418792 0.0091208
000250 60 04 21 3c d9 bb 2f 3c 3f 77 3d 3c e6 65 3a 3c
       0.009827703 0.010725939 0.011564075 0.011376834
000260 35 f7 29 3c 0e 68 18 3c dd 0f 0b 3c 84 47 e9 3b
       0.01037388 0.009302152 0.008487669 0.007119121
000270 ad 91 11 3c 62 82 3f 3c 98 35 52 3c eb 75 5d 3c
       0.0088848295 0.0116888005 0.012830161 0.013516883
000280 48 b2 6b 3c 9e 84 7a 3c a1 01 7d 3c 96 cc 6c 3c
       0.014385767 0.015290407 0.015442283 0.014453074
000290 74 9d 45 3c 2b d4 30 3c 71 e7 21 3c ca 92 11 3c
       0.0120614655 0.010792772 0.00988184 0.008885095
0002a0 3f 2b 10 3c 48 99 33 3c a0 37 49 3c 2f cb 64 3c
       0.008799373 0.010961838 0.012281328 0.013964458
0002b0 40 95 81 3c c4 9c 84 3c 41 68 81 3c dd c3 71 3c
       0.015818238 0.016188033 0.015796782 0.01475617
0002c0 e8 d5 4a 3c 5e 93 36 3c 37 fa 2b 3c 60 1d 25 3c
       0.012380101 0.0111435335 0.010496668 0.010077804
0002d0 aa 83 0b 3c 20 47 26 3c 64 0f 32 3c fe 7c 46 3c
       0.008515278 0.010148793 0.010867927 0.012114761
0002e0 3b 04 62 3c 34 8c 76 3c 5e d0 80 3c e0 98 84 3c
       0.013794954 0.0150480755 0.015724357 0.016186178
0002f0 1b 15 7a 3c fa 3d 64 3c c8 61 3f 3c 4e b3 21 3c
       0.015263821 0.013930792 0.011681028 0.00986941
000300 2e 51 bf 3b a2 8f ea 3b 05 a5 01 3c cb fa 13 3c
       0.005838535 0.0071582356 0.007912879 0.009031962
000310 bc 13 29 3c 81 35 54 3c 73 3d 85 3c 86 82 9d 3c
       0.010319646 0.012952209 0.016264653 0.019227277
000320 a5 63 92 3c 99 03 74 3c 60 5f 49 3c 96 a0 1e 3c
       0.01786978 0.014893436 0.012290806 0.009681841
000330 cd f3 63 3b cb 9c 90 3b 5f 0e 94 3b 1b 0f b4 3b
       0.0034782768 0.0044132224 0.0045183147 0.005494965
000340 d8 ee 00 3c e8 a5 3b 3c 0a cc 86 3c ab 4a ab 3c
       0.007869445 0.011453129 0.016454715 0.020909628
000350 ac 3e a1 3c 5b 2a 88 3c 45 14 59 3c 7c 6c 26 3c
       0.019683205 0.01662176 0.013249462 0.010157701
000360 7a 82 14 3b af ca 69 3b e2 85 93 3b 83 89 c1 3b
       0.0022660778 0.0035673787 0.004502044 0.0059062853
000370 61 16 09 3c 7e 50 51 3c 2e f6 96 3c ff 91 b5 3c
       0.008367152 0.0127755385 0.018427934 0.022164343
000380 80 7d b3 3c 2c 9a 9b 3c a5 0c 70 3c bd 2e 2f 3c
       0.021910429 0.018994413 0.014651452 0.010692296
000390 eb db 67 3b a0 c3 95 3b 0c 27 bc 3b 6d ba d3 3b
       0.0035378884 0.0045704395 0.0057419594 0.0064614327
0003a0 e1 8c eb 3b a1 93 16 3c ea 39 5c 3c f7 fa 94 3c
       0.007188425 0.009190471 0.013441542 0.018186076
0003b0 a2 d1 a1 3c d8 68 92 3c c5 e3 6f 3c 22 c0 2e 3c
       0.019753281 0.017872259 0.014641707 0.010665925
0003c0 b4 f3 ad 3b 2c e3 dc 3b 19 7e db 3b c8 e2 d5 3b
       0.0053085927 0.006740948 0.0066983816 0.0065272786
0003d0 d5 39 bf 3b 1f 9f c6 3b 5e 72 0a 3c d9 1e 40 3c
       0.0058357515 0.006061449 0.008450119 0.011726105
0003e0 54 12 60 3c 10 96 60 3c 68 9a 63 3c f1 a1 35 3c
       0.013676245 0.013707653 0.013891794 0.011085973
0003f0 7b 9a a4 3b f5 fc de 3b 92 c6 f3 3b b9 66 00 3c
       0.0050232983 0.006805057 0.007439443 0.007836991

model.fc1.bias f4 [16]
000000 35 24 88 3b e3 9b a6 39 a7 ad 32 3b 4e 34 bb 97
       0.004154707 0.00031778132 0.002726415 -1.2097795e-24
000010 b2 bb bc 3b 03 f8 a1 b9 3d 6b c9 ae 01 3d 0a bb
       0.0057596797 -0.00030893096 -9.159471e-11 -0.002109349
000020 e9 da d5 ae 0d 49 14 bb 31 34 52 bb 1a 59 49 8c
       -9.725005e-11 -0.002262655 -0.0032074566 -1.551129e-31
000030 79 83 0e bc 38 0b eb 38 6b 23 5b 39 93 ec cb ba
       -0.008698338 0.00011207763 0.00020898662 -0.0015558176

model.fc2.weight f4 [8, 16]
000000 21 7f b8 bc 58 d4 2f 3e aa 54 ae bc ca 6b 87 a0
       -0.022521557 0.17170846 -0.021280605 -2.2941218e-19
000010 9b 77 62 bc 81 8f 1c 3e b7 be 5b 2e 4e e7 51 3e
       -0.0138224615 0.15289117 4.9964224e-11 0.20498392
000020 3b 0e ce 2f 68 03 1c bc 53 fb 10 3e 49 a7 a6 20
       3.7481293e-10 -0.0095222965 0.14158373 2.8232194e-19
000030 a6 20 1a 3e 58 f3 dd bc 2e 65 51 3e 9e 89 5e 3d
       0.15051517 -0.027093574 0.20448753 0.05433046
000040 26 4e 22 bd 68 bc 1a 3e e3 8d 8b bc c1 9e de 37
       -0.03962531 0.15110934 -0.01703543 2.6538388e-05
000050 1a 7c 37 bc 58 e9 05 3e fb ba 61 ba db 49 bc 3c
       -0.011199022 0.13077295 -0.0008610931 0.022984436
000060 f4 95 b7 2b 94 ef 30 bc 82 73 32 3e 7b 7f e6 ad
       1.3044552e-12 -0.010799307 0.17426875 -2.6204585e-11
000070 3b fb 2b 3e 88 5e 32 bc 26 33 e8 3d ae e4 99 3d
       0.16795056 -0.010886796 0.11337881 0.0751432
000080 5a b6 d3 bc f6 a3 be 3d 98 ba c0 bc f1 ba 3d 80
       -0.025843788 0.09308617 -0.023526475 -5.669027e-39
000090 c1 46 b3 bc 7e bb 1a 3e 6d 8b ab bb 35 d6 41 3e
       -0.021884324 0.15110585 -0.0052351267 0.1892937
0000a0 31 7b 57 2f 7b 62 d7 bc 4d b6 c0 3d 52 00 00 80
       1.9597902e-10 -0.026292076 0.09409771 -1.15e-43
0000b0 9b 82 1d 3e b8 33 c4 bc 23 94 e6 3d 37 8f 51 3e
       0.15381853 -0.023950443 0.112587236 0.20464788
0000c0 3a 53 f2 3d 9c 67 c4 bc a3 78 1f 3e 6a 47 00 80
       0.118322805 -0.023975186 0.15573363 -2.5619e-41
0000d0 fc 94 06 3e 87 62 1f bd 3b 04 bf b5 c9 3d ec bc
       0.1314277 -0.038912322 -1.423184e-06 -0.028838055
0000e0 8d 66 84 b8 8b ea fe 3d 7e d9 e0 bc 56 89 89 98
       -6.313352e-05 0.12447079 -0.027447458 -3.5552344e-24
0000f0 45 33 bc bc 66 e0 1f 3e e3 1f 1c bd 5b 18 b4 bc
       -0.022973666 0.15612945 -0.038116347 -0.02198427
000100 57 c9 1a bc 8d 6b 0f 3e 88 6c 4e bc d2 ab e1 ba
       -0.009447417 0.14005871 -0.012599118 -0.0017217344
000110 a6 e8 d1 bc fd 06 32 3d e1 4d 4c 3c b1 10 1d 3e
       -0.02562363 0.043463696 0.01246974 0.15338399
000120 fc 08 50 bb e0 76 23 bd 35 d9 1c 3e 31 71 5c 2f
       -0.0031743636 -0.03990829 0.15317233 2.0049097e-10
000130 e8 c6 17 3e 75 e0 31 bc a2 91 85 3d c5 2c 0d 3e
       0.1482197 -0.010856737 0.06521918 0.1378661
000140 ae ff f6 3d 2f 50 01 bd dc 47 fb 3d b3 4e c1 b8
       0.12060486 -0.03157061 0.122695655 -9.217616e-05
000150 31 a2 06 3e ac 89 f9 bc d3 b8 da b6 13 24 05 bd
       0.13147809 -0.030461155 -6.5184227e-06 -0.032505106
000160 06 31 df 15 79 61 06 3e ff 19 13 bd 99 ac 9b af
       9.014633e-26 0.1312312 -0.035913464 -2.8316974e-10
000170 ea 20 02 bd 51 75 29 3e 02 50 08 bc 8e 9b 08 bd
       -0.03176967 0.16548659 -0.008319857 -0.033351474
000180 73 b1 0c 3e 87 d8 0a bd 65 5a 04 bc 9f 74 ac 2a
       0.13739567 -0.033897903 -0.008078192 3.063426e-13
000190 27 63 0f 3e 0a 90 1d bd 03 93 09 1e fb f9 fc bc
       0.14002667 -0.038467444 7.283121e-21 -0.030880919
0001a0 f6 c0 c6 26 0e d4 44 3e c8 60 f7 bc e7 8a 1b bb
       1.3791312e-15 0.19221517 -0.030197516 -0.0023733915
0001b0 cd b9 f1 bc dc 19 fc 3d 57 51 03 bd ab 38 f5 bc
       -0.029507542 0.1230962 -0.032059994 -0.029934248
0001c0 9a 7f 5c 3d 8e ec cd bc 32 01 4a 3e af 00 00 00
       0.053832628 -0.025137212 0.19727018 2.45e-43
0001d0 d3 4a 30 3d 3e 62 e3 bc 44 8a aa 3a ba 18 04 bd
       0.043040108 -0.027756806 0.0013011177 -0.032250144
0001e0 3b eb 42 18 7e a6 10 3e a6 13 e5 bc f6 8f b8 36
       2.5192673e-24 0.14126012 -0.02796347 5.5003866e-06
0001f0 d2 41 79 bc fb 1f 25 3e 5a ff 0f bd 66 8c cd bc
       -0.015213447 0.16125481 -0.03515563 -0.025091361

model.fc2.bias f4 [8]
000000 27 3a 29 3d 53 b3 fb 3c c7 f3 a0 3d 1f ef 94 3d
       0.041315224 0.030725157 0.07858997 0.07272171
000010 ca 24 04 3d 4b f9 26 3d 85 b7 c7 3d 9a ef 75 3d
       0.032261647 0.040765088 0.097518004 0.060042955

model.fc3.weight f4 [2, 8]
000000 a7 62 c5 3d 0e 58 1b 3e d3 01 c6 3e ed 77 00 be
       0.09637957 0.15170309 0.38673267 -0.12545748
000010 fc 96 12 3e c1 f5 f2 bc e5 6d 90 be 1b 3c 8b be
       0.14315408 -0.0296582 -0.28208843 -0.27194294
000020 32 b2 5f be 6f de 91 be 2c d3 3d 3d 20 30 3e 3e
       -0.2184532 -0.28490016 0.046343967 0.18573046
000030 ce 0f 9c be c4 6f 99 3e 1e a6 55 3d 4c 91 9b 3d
       -0.30480808 0.29968083 0.052160375 0.075960726

model.fc3.bias f4 [2]
000000 6d f3 0b 3d 1a 12 b0 3c
       0.034167696 0.021493006

criterion.weight f4 [2]
000000 00 00 00 3f 00 00 00 3f
       0.5 0.5

exp_avg f4 [64, 34, 3, 3]
000000 fd 7e 26 3b 0d 43 2e 3b f3 fc 26 3b 34 6b 2e 3b
       0.002540528 0.0026590258 0.002548036 0.002661419
000010 9d 29 2a 3b 68 d9 25 3b 52 15 24 3b 47 70 22 3b
       0.0025964745 0.0025306586 0.0025037122 0.002478616
000020 f1 f4 17 3b 30 66 13 3b 76 ff 20 3b d0 54 1b 3b
       0.0023186768 0.0022491328 0.002456633 0.0023701675
000030 eb 5f 1d 3b 8d 81 1c 3b 96 d3 19 3b 09 54 14 3b
       0.002401347 0.002388093 0.0023472062 0.0022633097
000040 74 ef 13 3b cb 2d 06 3b 73 cb ed ba f4 2e e5 ba
       0.0022573145 0.0020474072 -0.0018142298 -0.0017485307
000050 fd 53 e1 ba 48 fb ff ba ec 3d ff ba 6c 36 e4 ba
       -0.0017191168 -0.0019529844 -0.001947341 -0.0017411239
000060 53 00 02 bb ec 36 fa ba 9a 0c e4 ba 03 ea 12 bb
       -0.001983662 -0.0019089854 -0.0017398775 -0.0022417314
000070 0e 45 0e bb 50 58 07 bb ef 7a 0f bb d0 46 16 bb
       -0.002170864 -0.0020652004 -0.0021893342 -0.002293039
000080 ad d4 fe ba 81 2e 0d bb 43 3a 0a bb 3e e4 e7 ba
       -0.0019442044 -0.002154261 -0.0021091856 -0.0017691923
000090 96 8d 93 3a 12 68 7d 3a 17 4b 5b 3a e4 55 a6 3a
       0.0011257406 0.0009666692 0.0008365376 0.0012690392
0000a0 bd 03 8a 3a 1d 81 64 3a 06 65 b6 3a 8f 88 a2 3a
       0.0010529679 0.0008716749 0.0013915605 0.0012400317
0000b0 4b 4e 88 3a 19 97 7d 3a 8f 15 62 3a 9a 8a 4b 3a
       0.001039931 0.00096736994 0.00086244283 0.00077644887
0000c0 61 95 86 3a ed 11 62 3a 7a 66 41 3a 04 da 8a 3a
       0.0010267907 0.0008623887 0.0007377636 0.0010593538
0000d0 6b dd 81 3a 12 b6 6c 3a 39 1f 0d b9 a2 aa eb b8
       0.0009907907 0.0009029816 -0.00013458439 -0.00011237456
0000e0 10 72 a4 b8 bf 66 50 b7 48 59 df 37 b5 51 34 38
       -7.841375e-05 -1.2421689e-05 2.6625246e-05 4.299144e-05
0000f0 94 d9 96 38 44 8b ba 38 0f 86 0b 39 59 88 0a ba
       7.1930845e-05 8.8951114e-05 0.00013306014 -0.00052845996
000100 53 86 19 ba 11 9b 16 ba 6e 67 28 ba a9 ba 41 ba
       -0.00058565027 -0.00057451526 -0.00064241036 -0.000739018
000110 af 77 3c ba 5b 4a 43 ba 74 7b 4e ba 9a 20 4f ba
       -0.0007189465 -0.00074497395 -0.00078766723 -0.00079012814
000120 e3 f2 09 b9 d5 21 53 b9 b5 dd 69 b9 1b be ee b8
       -0.0001315582 -0.00020135131 -0.00022303204 -0.00011384134
000130 df b3 40 b9 67 b4 58 b9 cd 72 b2 b8 b7 a2 1e b9
       -0.00018377554 -0.0002066657 -8.509085e-05 -0.0001512867
000140 79 75 32 b9 fc dc 0e ba 27 b6 22 ba 96 6b 26 ba
       -0.00017019165 -0.00054497994 -0.00062069524 -0.0006348429
000150 7f 93 12 ba 42 e1 2a ba 78 79 2b ba 2c ad 10 ba
       -0.00055914366 -0.00065185514 -0.00065412326 -0.00055189687
000160 1e 8d 25 ba f1 6e 25 ba 2d 75 da 36 42 02 f8 b7
       -0.00063152786 -0.0006310782 6.5105473e-06 -2.9564955e-05
000170 b0 28 82 b8 4c b7 f6 38 41 12 80 38 ba 6e 80 37
       -6.206462e-05 0.00011764336 6.106916e-05 1.531035e-05
000180 c7 30 38 39 04 df ee 38 c9 54 6f 38 c7 40 21 ba
       0.00017565778 0.00011390264 5.7061003e-05 -0.0006151315
000190 fe fe 2e ba 81 81 28 ba ae 4d 49 ba 3c e5 61 ba
       -0.000667557 -0.0006427989 -0.00076791167 -0.00086172274
0001a0 de 80 55 ba 40 5b 6d ba 9d ed 80 ba 5f 59 78 ba
       -0.0008144508 -0.000905443 -0.0009836439 -0.00094737665
0001b0 8e 9a 84 b8 13 48 0a b9 a7 95 21 b9 a7 99 28 b8
       -6.3230385e-05 -0.00013187555 -0.00015409906 -4.019742e-05
0001c0 7f 2a e6 b8 01 8a 0d b9 2d 1a 24 b7 f0 3e 9f b8
       -0.0001097517 -0.00013498218 -9.781256e-06 -7.593434e-05
0001d0 0b 00 c9 b8 7f 33 d4 ba 48 4d f3 ba fb 37 05 bb
       -9.584435e-05 -0.0016189663 -0.001856246 -0.0020327556
0001e0 cd 97 db ba 11 02 fe ba 6d 6d 09 bb a8 be da ba
       -0.0016753614 -0.0019379278 -0.0020969764 -0.00166889
0001f0 18 52 f8 ba b0 34 07 bb ac 09 25 bb 96 22 26 bb
       -0.0018945364 -0.002063077 -0.0025182767 -0.0025350205
000200 21 24 16 bb c8 87 23 bb 1a 02 1c bb 6e 59 11 bb
       -0.0022909718 -0.0024952758 -0.0023804964 -0.0022178548
000210 56 f1 12 bb 57 bf 09 bb 2f 5a 01 bb ac 25 0e bb
       -0.002242168 -0.0021018588 -0.0019737592 -0.0021689935
000220 5e 93 21 bb ca 54 26 bb 9c df 1d bb 39 54 2e bb
       -0.0024654488 -0.0025380128 -0.002408958 -0.0026600494
000230 e5 9f 2e bb 6b 3a 1d bb 8d 47 22 bb 4e e2 26 bb
       -0.0026645598 -0.0023991119 -0.0024761886 -0.0025464478
000240 93 0c 2e b9 9b 50 8d 38 07 20 f4 38 ac 7a 8f 35
       -0.00016598617 6.738418e-05 0.00011640792 1.0690032e-06
000250 4f e8 80 39 e5 56 95 39 cb 4a 83 38 d4 66 70 39
       0.00024587146 0.00028484236 6.260498e-05 0.0002292649
000260 e9 c9 99 39 54 72 e9 ba c7 8f e1 ba ed e5 d7 ba
       0.0002933287 -0.0017810562 -0.0017208987 -0.0016471721
000270 10 ee e4 ba ba f4 de ba 23 6b d5 ba 69 96 d6 ba
       -0.0017465968 -0.001701019 -0.001628254 -0.001637173
000280 75 88 d0 ba 43 59 cd ba 7a f6 3d 3a 0b e6 41 3a
       -0.0015909808 -0.0015666861 0.00072465057 0.0007396645
000290 f6 22 39 3a ea 8b 4a 3a a8 35 4d 3a 62 fd 41 3a
       0.00070623995 0.00077265373 0.0007828125 0.00074001227
0002a0 5b fe 3f 3a 1c d2 3f 3a 32 5d 34 3a 05 a4 20 39
       0.00073239737 0.00073173805 0.0006880342 0.00015319891
0002b0 52 18 39 39 aa b4 36 39 39 29 37 39 16 61 49 39
       0.00017652035 0.00017424175 0.00017467597 0.00019205021
0002c0 57 98 40 39 17 23 36 39 87 9e 41 39 e6 a3 36 39
       0.00018367298 0.00017369945 0.0001846497 0.0001741793
0002d0 57 3d 2d 39 7d 15 29 39 fa 3d 1d 39 6f 2b 2a 39
       0.00016521417 0.00016125101 0.00014995775 0.00016228644
0002e0 2f 7e 29 39 97 51 1e 39 70 36 1a 39 5a 89 1d 39
       0.00016164103 0.00015098449 0.00014706864 0.00015023854
0002f0 bf 59 15 39 43 b0 d6 39 64 f2 dc 39 90 e3 d5 39
       0.0001424318 0.00040948586 0.00042142265 0.00040796073
000300 25 d7 de 39 f5 1f e1 39 48 78 d7 39 20 76 d6 39
       0.00042503435 0.00042939154 0.00041097612 0.0004090527
000310 db 9d d5 39 93 cd c8 39 42 a8 09 ba db 05 0c ba
       0.00040744137 0.00038300137 -0.00052512076 -0.00053414487
000320 f4 c3 08 ba dc 5b 11 ba 64 a0 13 ba 95 0a 0f ba
       -0.00052171876 -0.0005544999 -0.0005631505 -0.0005456594
000330 20 70 10 ba ce 6e 12 ba d4 31 0d ba 4d d5 a7 39
       -0.0005509872 -0.0005585969 -0.0005386148 0.00032011644
000340 b7 f2 9c 39 f8 83 8c 39 1c 52 a7 39 25 03 99 39
       0.00029935475 0.00026801205 0.00031913898 0.00029184777
000350 c5 10 84 39 55 21 91 39 ec 20 83 39 ba 42 60 39
       0.00025189496 0.0002768139 0.00025010796 0.00021387162
000360 a7 83 a7 b8 ae 71 39 b8 b0 2a a0 b7 2e 7d 3e b8
       -7.987703e-05 -4.421331e-05 -1.9093364e-05 -4.5416113e-05
000370 af e0 68 b7 c5 84 07 36 ce cd 5a b6 cf f9 c0 37
       -1.3880591e-05 2.019385e-06 -3.2604325e-06 2.300451e-05
000380 60 c2 0d 38 13 f7 ba b9 22 7f d3 b9 59 47 de b9
       3.3798045e-05 -0.0003566077 -0.00040339777 -0.00042396298
000390 20 e6 c5 b9 fd a3 e1 b9 82 26 ec b9 27 2b bd b9
       -0.00037746225 -0.00043037525 -0.00045042118 -0.0003608104
0003a0 d1 1d d6 b9 fc 07 df b9 8e f4 56 39 c0 c7 77 39
       -0.00040839476 -0.00042539823 0.00020499734 0.00023630168
0003b0 66 87 7b 39 71 5d 67 39 96 de 84 39 bd f9 86 39
       0.00023987665 0.00022064686 0.0002534284 0.0002574454
0003c0 54 ef 55 39 d8 7a 75 39 16 6a 79 39 d8 5c 90 b9
       0.0002040242 0.00023410784 0.0002378601 -0.00027534994
0003d0 87 a7 92 b9 1f 88 8b b9 0a b7 91 b9 87 b2 91 b9
       -0.00027972108 -0.00026613564 -0.0002779293 -0.00027789568
0003e0 8a d6 88 b9 d0 96 84 b9 66 8a 82 b9 c9 e7 73 b9
       -0.00026099785 -0.00025289366 -0.00024898647 -0.00023260633
0003f0 fb 84 50 b9 58 13 32 b9 d9 92 18 b9 97 38 55 b9
       -0.00019885965 -0.00016982609 -0.00014550555 -0.00020334344

exp_avg_sq f4 [64, 34, 3, 3]
000000 75 f2 64 38 f4 8b 7d 38 12 14 75 38 ee 5f 89 38
       5.458524e-05 6.0450242e-05 5.8431244e-05 6.5505374e-05
000010 c3 89 99 38 0c cd 96 38 da 96 91 38 1f bc a6 38
       7.321269e-05 7.19075e-05 6.942237e-05 7.950537e-05
000020 f7 20 a1 38 88 e9 60 38 3a 6f 79 38 b4 01 71 38
       7.6832184e-05 5.3623255e-05 5.9469814e-05 5.7460464e-05
000030 c3 c3 85 38 ff d2 95 38 51 32 93 38 57 b9 8c 38
       6.378398e-05 7.144175e-05 7.0188784e-05 6.7102425e-05
000040 c7 43 a1 38 06 12 9c 38 8c b8 bc 38 e1 14 c6 38
       7.689703e-05 7.442017e-05 8.998913e-05 9.445265e-05
000050 fa 7f bf 38 64 37 d3 38 27 47 df 38 e3 65 d7 38
       9.131427e-05 0.00010071581 0.00010646722 0.00010270977
000060 50 a3 d8 38 60 29 e8 38 a9 9e df 38 61 9c c0 38
       0.00010330102 0.00011070329 0.000106630214 9.184401e-05
000070 2b 37 c8 38 0a bd bf 38 87 8c d6 38 63 4a df 38
       9.547019e-05 9.142801e-05 0.000102304904 0.00010647324
000080 a1 45 d7 38 25 e0 da 38 4f a6 e7 38 d3 48 dc 38
       0.00010264968 0.000104368 0.00011045916 0.00010503982
000090 f2 fe 0b 38 8d de 11 38 89 b8 0f 38 36 d7 15 38
       3.337762e-05 3.477796e-05 3.426572e-05 3.57248e-05
0000a0 6c e3 1b 38 87 48 19 38 51 76 19 38 d6 77 1f 38
       3.7166683e-05 3.654559e-05 3.6588233e-05 3.802016e-05
0000b0 d6 82 1c 38 db 25 1a 38 4d af 20 38 d1 d7 1b 38
       3.731515e-05 3.6751717e-05 3.8310234e-05 3.7155874e-05
0000c0 e4 a6 25 38 28 a6 2d 38 7d 68 28 38 53 3f 2a 38
       3.9494495e-05 4.140116e-05 4.0151634e-05 4.0590134e-05
0000d0 d6 d6 31 38 78 61 2c 38 8a 23 d1 37 f7 30 db 37
       4.240017e-05 4.109877e-05 2.493129e-05 2.6129635e-05
0000e0 77 5f db 37 32 fa d2 37 ac 64 de 37 f0 f4 df 37
       2.6151289e-05 2.5150457e-05 2.6511341e-05 2.669773e-05
0000f0 2e b4 ce 37 78 d4 da 37 8e 0f de 37 91 8f e4 37
       2.4641016e-05 2.6086564e-05 2.6471705e-05 2.7246571e-05
000100 80 58 f3 37 1a 7d f2 37 94 90 f0 37 ae cb 00 38
       2.9009068e-05 2.8906903e-05 2.8677554e-05 3.070727e-05
000110 a7 5b 00 38 0a 7b e9 37 b0 0e fa 37 4c 67 fa 37
       3.0602936e-05 2.7833059e-05 2.9809162e-05 2.9850424e-05
000120 55 e0 11 37 a3 37 1b 37 cb ac 18 37 46 bd 1c 37
       8.694905e-06 9.251674e-06 9.1001375e-06 9.342393e-06
000130 31 83 26 37 74 c4 23 37 3a 27 1d 37 57 72 26 37
       9.924916e-06 9.761297e-06 9.367062e-06 9.920993e-06
000140 08 be 23 37 bf 79 8d 37 d4 00 94 37 4d 17 8f 37
       9.759802e-06 1.6865202e-05 1.764336e-05 1.7057779e-05
000150 5a d7 95 37 ce ce 9c 37 a6 b5 97 37 a7 2c 95 37
       1.7862465e-05 1.869295e-05 1.808519e-05 1.7782977e-05
000160 0f f5 9b 37 a5 1a 97 37 21 1a d1 37 6b e2 d7 37
       1.8591554e-05 1.801301e-05 2.4926909e-05 2.5735431e-05
000170 cc 5b d6 37 1b 84 d4 37 9b 2c dc 37 76 07 db 37
       2.5553534e-05 2.5333886e-05 2.6246815e-05 2.6110309e-05
000180 48 bd d2 37 78 d3 da 37 20 7a da 37 94 92 20 38
       2.5122092e-05 2.6086098e-05 2.6044494e-05 3.8283484e-05
000190 a3 25 2b 38 ee a2 2a 38 04 e2 26 38 b0 94 32 38
       4.080463e-05 4.06829e-05 3.9787978e-05 4.2576983e-05
0001a0 4a 04 32 38 c8 8b 22 38 b7 03 2e 38 7a 0d 2e 38
       4.24425e-05 3.875399e-05 4.1488292e-05 4.1497384e-05
0001b0 d8 06 0d 37 0e 34 16 37 d9 e1 13 37 d7 c2 17 37
       8.405848e-06 8.952817e-06 8.814467e-06 9.045666e-06
0001c0 8d 5b 21 37 e0 d8 1e 37 e7 5b 18 37 5b 76 21 37
       9.617664e-06 9.468029e-06 9.081304e-06 9.623905e-06
0001d0 7d fd 1e 37 af 65 4b 38 9b 77 56 38 41 3f 55 38
       9.476554e-06 4.849367e-05 5.1132967e-05 5.0842067e-05
0001e0 41 da 59 38 be c2 64 38 ad d0 61 38 57 af 61 38
       5.1940096e-05 5.4540804e-05 5.3838525e-05 5.380748e-05
0001f0 bb 5e 6a 38 4f a1 65 38 bd c0 59 38 e7 fb 5e 38
       5.5878172e-05 5.4748085e-05 5.1916333e-05 5.3163527e-05
000200 14 3a 42 38 f1 ad 81 38 32 e2 82 38 50 7d 65 38
       4.6307294e-05 6.1835985e-05 6.241015e-05 5.471456e-05
000210 a5 da 83 38 af ac 8c 38 ed 01 78 38 65 60 16 38
       6.2872925e-05 6.707885e-05 5.91296e-05 3.585256e-05
000220 b1 eb 2a 38 57 e3 26 38 d7 f6 28 38 69 92 43 38
       4.0750663e-05 3.978921e-05 4.028421e-05 4.6627978e-05
000230 ce ca 3f 38 fd ba 2c 38 62 07 45 38 41 73 41 38
       4.5726825e-05 4.1182142e-05 4.6975336e-05 4.6122124e-05
000240 6b 1b 50 37 7b 33 57 37 01 48 4c 37 3c 25 57 37
       1.240415e-05 1.2826985e-05 1.2176112e-05 1.2823668e-05
000250 05 01 61 37 e8 93 52 37 79 88 57 37 54 e9 5b 37
       1.3411282e-05 1.25514125e-05 1.2846774e-05 1.3107743e-05
000260 3e 1d 4e 37 41 b6 02 38 f5 f3 07 38 d5 ca 05 38
       1.2285365e-05 3.1164152e-05 3.241371e-05 3.1898573e-05
000270 b4 55 08 38 3b 9b 0d 38 bf 83 0b 38 86 de 0a 38
       3.2504744e-05 3.376159e-05 3.326288e-05 3.3109005e-05
000280 df 21 10 38 b6 65 0c 38 6a 38 c7 36 31 57 d9 36
       3.436382e-05 3.3473327e-05 5.9372296e-06 6.4772544e-06
000290 50 04 cd 36 62 1f e7 36 e4 47 01 37 75 09 f0 36
       6.109978e-06 6.88799e-06 7.7057375e-06 7.1536583e-06
0002a0 ea c3 da 36 7a 7d f2 36 90 df e5 36 aa 1b 1a 35
       6.5197137e-06 7.2267694e-06 6.850758e-06 5.7409727e-07
0002b0 1e 38 20 35 ed f0 1c 35 47 17 21 35 c8 d0 28 35
       5.9686306e-07 5.846512e-07 6.0011047e-07 6.2888694e-07
0002c0 dc 86 25 35 66 61 1d 35 b6 82 24 35 c4 df 20 35
       6.1663536e-07 5.862879e-07 6.128497e-07 5.9930267e-07
0002d0 07 30 38 35 bc bb 3f 35 a2 87 3d 35 9a c0 46 35
       6.861523e-07 7.1426234e-07 7.060536e-07 7.404102e-07
0002e0 14 f5 51 35 d5 45 51 35 ba 7b 43 35 0b f3 51 35
       7.8215203e-07 7.7960186e-07 7.2823207e-07 7.821224e-07
0002f0 11 dc 51 35 2f 0b 39 36 33 5d 40 36 2f 80 3c 36
       7.8178806e-07 2.7573658e-06 2.8664479e-06 2.8088796e-06
000300 33 ce 46 36 d2 5b 4e 36 6b 18 49 36 ec 8e 4c 36
       2.9624323e-06 3.0749839e-06 2.9965547e-06 3.048156e-06
000310 b0 c9 53 36 79 0b 4d 36 c0 bc 9c 35 0f 36 a6 35
       3.1558848e-06 3.0554058e-06 1.1677839e-06 1.2383697e-06
000320 a4 d4 a0 35 39 89 ac 35 bb b9 bb 35 93 3e b5 35
       1.1982816e-06 1.2854936e-06 1.398664e-06 1.3503762e-06
000330 ed ea aa 35 f1 f3 bb 35 20 cb b6 35 c3 ef 16 36
       1.2734359e-06 1.4003582e-06 1.3619174e-06 2.2491301e-06
000340 f6 0e 1a 36 0e e4 0e 36 9e 51 29 36 a3 a6 2b 36
       2.2956497e-06 2.1292394e-06 2.523047e-06 2.557798e-06
000350 08 50 1b 36 4b 52 26 36 7a 43 29 36 5b 65 1a 36
       2.3143384e-06 2.4783828e-06 2.522224e-06 2.3006785e-06
000360 fa a6 a1 35 43 31 a9 35 97 eb a4 35 1d 04 a4 35
       1.2044031e-06 1.2605818e-06 1.2287518e-06 1.2220149e-06
000370 74 f9 ab 35 d9 6b a8 35 97 ba 9a 35 81 5e a1 35
       1.2813093e-06 1.2548363e-06 1.1528199e-06 1.2022939e-06
000380 f2 8f 9f 35 24 62 52 36 7e 27 66 36 1a 15 67 36
       1.1888317e-06 3.1349564e-06 3.4295658e-06 3.4433965e-06
000390 ee 50 5c 36 27 d5 74 36 11 cc 78 36 6e 52 52 36
       3.2829662e-06 3.6482904e-06 3.7073662e-06 3.134042e-06
0003a0 19 a3 68 36 78 6e 6d 36 60 4a 62 35 73 e3 6e 35
       3.466563e-06 3.5380053e-06 8.429979e-07 8.899289e-07
0003b0 a7 fe 70 35 e1 45 7a 35 16 92 86 35 d9 cb 87 35
       8.9777535e-07 9.3233945e-07 1.0026295e-06 1.0117611e-06
0003c0 2b 33 86 35 c1 c6 8f 35 eb 0e 8f 35 05 f7 b9 35
       9.99867e-07 1.0712175e-06 1.0658672e-06 1.3855466e-06
0003d0 4f be bf 35 82 ed b8 35 e5 ef c7 35 53 7b cf 35
       1.4285996e-06 1.3778192e-06 1.4896474e-06 1.5458594e-06
0003e0 da fa c6 35 3d ba c4 35 35 65 cb 35 61 b8 c2 35
       1.4825157e-06 1.465734e-06 1.5154134e-06 1.4507788e-06
0003f0 32 36 a4 35 42 f5 a5 35 1c f1 9e 35 b7 a9 b0 35
       1.2234725e-06 1.2364837e-06 1.1842089e-06 1.3162415e-06

exp_avg f4 [64]
000000 9c 83 b7 3a 73 00 75 ba 2a 52 27 3a 83 7f d0 ba
       0.0014001015 -0.0009346075 0.0006382788 -0.0015907142
000010 a5 b7 a2 3a e2 ee 34 b9 07 23 39 ba d7 86 59 3a
       0.001241435 -0.00017255128 -0.00070624094 0.0008297986
000020 1b fc ec ba d4 72 5b 3b c3 d0 24 3a c5 95 02 ba
       -0.0018080504 0.003348519 0.00062872114 -0.0004981424
000030 af 4d af 38 df 99 38 bb d1 77 9b b9 b2 7d 67 3a
       8.35912e-05 -0.0028167886 -0.00029653174 0.0008830681
000040 76 1e f9 3a 39 94 90 ba 2b 72 15 3a 71 1f 07 bb
       0.001900627 -0.0011030502 0.0005700911 -0.0020618106
000050 87 0f c5 3a 6c 3d dc 38 38 be 23 ba d8 86 42 3a
       0.0015034535 0.00010501858 -0.00062463013 0.0007420606
000060 95 8a e8 ba 84 51 59 3b 25 f6 9d 3a d7 ab 29 ba
       -0.0017741496 0.003316016 0.0012051506 -0.00064724445
000070 0a b2 f9 39 be 28 05 bb 1b 89 15 ba a0 59 ca 3a
       0.0004762563 -0.0020318474 -0.0005704329 0.0015438087
000080 5f 91 0d 3b 8b f5 81 ba 91 83 37 3a d7 7f 32 bb
       0.002160154 -0.0009915096 0.0007000501 -0.0027236843
000090 a1 00 fa 3a bc 90 8a 37 b6 fc 94 ba 49 e6 92 3a
       0.0019073674 1.651828e-05 -0.0011366818 0.0011207546
0000a0 26 c7 1d bb 68 13 7d 3b 01 18 47 3b e0 79 2a ba
       -0.0024075 0.0038616303 0.0030379298 -0.0006503146
0000b0 42 ef 88 39 38 a6 1c bb ae f1 93 b9 c7 46 78 3a
       0.00026118202 -0.0023902785 -0.0002821809 0.0009470996
0000c0 b7 4f 63 3c a6 1c e9 bc 92 81 e7 3b d3 4c bb bc
       0.013873986 -0.028456043 0.0070650065 -0.022863781
0000d0 b0 96 28 bc 22 4b b9 3c 35 1f 18 bd e1 8e 39 3c
       -0.010289833 0.022618834 -0.037139136 0.011325569
0000e0 d1 c1 06 bd dd 75 91 3c 93 11 d5 bc 63 b3 87 3c
       -0.03289968 0.017756397 -0.026009357 0.01656503
0000f0 c5 50 59 3c 58 09 f0 bc b1 9d 40 bc 4f 4e 89 bc
       0.013263886 -0.02930133 -0.011756347 -0.016760973

exp_avg_sq f4 [64]
000000 db db a3 38 39 a6 37 38 2a 3d bf 36 e0 e1 0a 39
       7.813397e-05 4.3785407e-05 5.699364e-06 0.0001324485
000010 2f 45 15 38 dd f2 44 38 59 6d df 38 79 40 81 38
       3.55888e-05 4.6956226e-05 0.00010653836 6.163208e-05
000020 54 e6 5f 38 fe 25 f7 38 36 cf 09 39 b8 15 64 37
       5.3381853e-05 0.000117849544 0.0001314253 1.3594916e-05
000030 6d ff 9f 37 31 c8 20 39 3e 23 8c 37 50 f0 36 38
       1.9073219e-05 0.00015333366 1.6705711e-05 4.361599e-05
000040 c2 98 9b 38 15 c3 4e 38 a7 78 aa 36 90 a6 41 39
       7.419429e-05 4.929591e-05 5.0804406e-06 0.00018467964
000050 25 b3 1d 38 8e 27 3b 38 3d ed b2 38 a8 05 68 38
       3.759856e-05 4.4621112e-05 8.5318905e-05 5.5318378e-05
000060 13 d8 89 38 10 88 de 38 23 5c 16 39 6f 03 83 37
       6.572916e-05 0.000106111285 0.00014339438 1.5618016e-05
000070 b9 33 d3 37 7c ed 1b 39 10 b6 66 37 29 22 2c 38
       2.5177245e-05 0.00014870422 1.3751458e-05 4.103981e-05
000080 ea a1 08 39 58 ab 53 38 dc 29 dc 36 b7 ab 45 39
       0.00013030288 5.0465896e-05 6.561384e-06 0.00018851353
000090 b0 4f 4f 38 95 f3 91 38 c2 11 0c 39 17 ca c6 38
       4.942686e-05 6.9595095e-05 0.00013358056 9.479018e-05
0000a0 0a ac a3 38 4c a9 12 39 17 d4 54 39 44 07 87 37
       7.8044905e-05 0.00013986713 0.00020296905 1.6096637e-05
0000b0 06 5a 10 38 a9 03 4e 39 6c b0 aa 37 bb 49 8a 38
       3.4416116e-05 0.00019647054 2.0347732e-05 6.594086e-05
0000c0 ff 79 fd 3b 42 93 42 3c 3b a8 53 3a 6f fd b7 3c
       0.0077354903 0.011875929 0.00080740795 0.022459714
0000d0 46 de 9e 3b 5b 7d e1 3b 77 e1 9a 3c 46 bc 86 3b
       0.0048482744 0.0068813986 0.018906338 0.0041117994
0000e0 7f ed b2 3c fc 45 21 3c 22 a7 10 3d 67 a9 99 3b
       0.021841763 0.009843346 0.03531564 0.004689384
0000f0 c7 fd fb 3a 4d 72 8c 3c 2a 29 60 3b d6 76 88 3b
       0.0019225412 0.017144347 0.0034204223 0.004164557
