saved_models/lstm.ckpt (torch, 349827 bytes, 37 tensors)

model.lstm.weight_ih_l0 f4 [256, 18]
0	0xbc060b7f	-0.008181452
1	0xbbd1cf7a	-0.006402907
2	0xbcebb027	-0.02877052
3	0xbd08008b	-0.033203643
4	0xbd4d5199	-0.050126646
5	0x3c3ced47	0.011531181
6	0xbd7ef4b4	-0.062245086
7	0xbd9557bf	-0.07292127
8	0xbc2740ff	-0.010208367
9	0xbd2f2109	-0.042756114
10	0xbd578775	-0.052619416
11	0xbdc206ac	-0.09473929
12	0xbd7dbb3f	-0.06194615
13	0xbc18659c	-0.009301569
14	0x3d0202bb	0.031740885
15	0xbd383991	-0.044976775
16	0x3d2cbfd5	0.042175133
17	0x3cc530ac	0.02407106
18	0xb9c957a5	-0.00038403008
19	0xb92e8b9a	-0.00016645939
20	0x39510416	0.00019933315
21	0xba3d08c9	-0.0007211087
22	0xb9b83ede	-0.00035142055
23	0xb927c493	-0.0001599959
24	0xba6af49c	-0.0008962841
25	0x3ac12029	0.0014734316
26	0x3985b941	0.00025505762
27	0x3b610050	0.0034332462
28	0xba4134f8	-0.00073702587
29	0x3a914226	0.0011082336
30	0xb923814b	-0.00015593057
31	0x3895b0a3	7.137775e-05
32	0x39cc56aa	0.00038974482
33	0x3934bed6	0.0001723723
34	0xb964e658	-0.00021829584
35	0xba088920	-0.00052084215
36	0xba79f8de	-0.00095356803
37	0xba208be6	-0.0006124362
38	0x398398fe	0.00025100255
39	0x38124616	3.4874385e-05
40	0xba47441d	-0.0007601397
41	0xbac7eb7a	-0.0015252673
42	0xb8b7671c	-8.7453256e-05
43	0x3a9e7373	0.001208885
44	0x3a7b3748	0.00095831277
45	0x3ba2faf6	0.0049737645
46	0x3a4ad1c7	0.0007736948
47	0xb990e309	-0.00027634975
48	0x3adc2daa	0.0016798277
49	0x3a1d6723	0.0006004443
50	0xb5b4a3b9	-1.3458695e-06
51	0xb9917a8b	-0.00027747857
52	0x3a9bd06a	0.0011887674
53	0xba5f89ba	-0.0008527298
54	0xb9f1000f	-0.00045967146
55	0xb9763f00	-0.00023483858
56	0x396cff02	0.00022601712
57	0xba303cdb	-0.00067229354
58	0xb9f0057d	-0.00045780456
59	0xb9b29af9	-0.0003406627
60	0xba352b34	-0.000691104
61	0x3ab3843d	0.0013696026
62	0x397f4c28	0.00024347065
63	0x3b6e2dd0	0.0036343224
64	0xba0213c6	-0.0004962053
65	0x3a775aec	0.00094358507
66	0xb80e1f7d	-3.3884764e-05
67	0xb75ad266	-1.30428e-05
68	0x39a9cb7c	0.000323858
69	0x38aab0db	8.1391736e-05
70	0xb8739889	-5.8077774e-05
71	0xba005a74	-0.0004896291
72	0xb929bd06	-0.00016187513
73	0xb976beea	-0.00023531509
74	0x396860e6	0.00022161342
75	0x39717d2f	0.00023030186
76	0x39be9287	0.00036348795
77	0x3a241681	0.0006259457
78	0xb76c20df	-1.407435e-05
79	0x3986f6c4	0.00025742326
80	0x398a8dc3	0.00026427032
81	0x39cf7883	0.00039571905
82	0x38ab2794	8.1612874e-05
83	0x39751003	0.00023370986
84	0x3900b669	0.00012274984
85	0x39f1dce3	0.00046131675
86	0x3a01a5a7	0.00049456436
87	0x39ddf0c7	0.00042331798
88	0x3819cc90	3.6668556e-05
89	0xb904f016	-0.0001267794
90	0xb8780dae	-5.9140548e-05
91	0xb8b0b58c	-8.42615e-05
92	0x379ebe42	1.8923663e-05
93	0x3727e6b8	1.0007694e-05
94	0x38a65599	7.9314406e-05
95	0x39033b6e	0.00012515273
96	0xb7bd502f	-2.2567894e-05
97	0x38146848	3.538307e-05
98	0x381ca273	3.734459e-05
99	0x390fa7a6	0.00013699997
100	0x36b85326	5.493307e-06
101	0x381a8cf6	3.684774e-05
102	0x37a4e6ad	1.965774e-05
103	0x38abc837	8.191208e-05
104	0x38e14ed6	0.000107435204
105	0x38b1a095	8.4699284e-05
106	0xb739c880	-1.1073542e-05
107	0xb87ffe71	-6.1033705e-05
108	0xb961eecb	-0.0002154663
109	0xb958ee8a	-0.00020688228
110	0xb9c68e7e	-0.00037871668
111	0xba0e04d5	-0.000541759
112	0x37cc2b07	2.4338731e-05
113	0xb90c8efb	-0.00013404705
114	0x3848de80	4.7890935e-05
115	0x38ada0e3	8.27925e-05
116	0xb8d0f174	-9.963187e-05
117	0xb89784b7	-7.224961e-05
118	0xb92808ac	-0.00016024959
119	0x3629f6ae	2.532655e-06
120	0xb9aaffd9	-0.00032615548
121	0xb7ae9167	-2.0810125e-05
122	0xb9326505	-0.00017013036
123	0x397b0bf9	0.00023941686
124	0xb90ed1bc	-0.00013620307
125	0xb956d619	-0.00020488388
126	0xb9dd5c7a	-0.00042221305
127	0xb9813ccd	-0.00024650097
128	0x396a95f2	0.00022371838
129	0xb938b717	-0.00017615814
130	0xba010d13	-0.00049229077
131	0xba18016f	-0.00057985535
132	0xb90550c9	-0.00012713963
133	0x3a2671cc	0.00063493545
134	0x39716d01	0.00023024158
135	0x3b1f32e5	0.002429181
136	0x38adb298	8.2825485e-05
137	0x39126958	0.00013962889
138	0x39bd98c1	0.000361627
139	0xb8f3902d	-0.00011613998
140	0x39460714	0.00018885388
141	0xb93c75a8	-0.00017972908
142	0x399612ca	0.00028624228
143	0xb97715b2	-0.00023563838
144	0xbcaffd24	-0.021483012
145	0xbc83bd44	-0.01608146
146	0x3c4ae0a1	0.012382657
147	0x3ca37b62	0.019956294
148	0xbc6a2ca9	-0.014292874
149	0xbc9e5bac	-0.019330822
150	0x3c0bd86a	0.008535484
151	0xbcb12414	-0.021623649
152	0x3cb2422f	0.021760074
153	0xbca5d80d	-0.020244623
154	0x3bb8b9a5	0.005637365
155	0xbcd12be7	-0.02553363
156	0x3cac78c7	0.021053685
157	0xbc265a92	-0.01015343
158	0x3b209985	0.0024505567
159	0x3b562441	0.0032675418
160	0x3ca50a54	0.020146526
161	0xbcbac301	-0.022798063
162	0x3c596b3a	0.013270194
163	0x3c902158	0.017594025
164	0x3d81e055	0.06341616
165	0x3deb216e	0.114809856
166	0xbcb017d9	-0.021495746
167	0xbd3ee30b	-0.046603244
168	0xbe3e0d54	-0.18559772
169	0xbd182393	-0.0371433
170	0x3cbc2a24	0.022969313
171	0xbc3e7a19	-0.01162579
172	0xbe579025	-0.2105108
173	0xbd3c47fa	-0.04596708
174	0x3d85f4f6	0.06540863
175	0xbc34950a	-0.011021862
176	0xbcfb7202	-0.030694012
177	0xbd4b9a45	-0.04970767
178	0x3d1e55c3	0.038656007
179	0x3d0c1a6f	0.034204897
180	0xb9a590c5	-0.00031579114
181	0xb92d9915	-0.00016555593
182	0x394e641c	0.00019682985
183	0xba0dec0c	-0.0005413897
184	0xb9b4f140	-0.0003451202
185	0xb95d9a3a	-0.00021133656
186	0xba255b3a	-0.00063078443
187	0x3a9d212e	0.0011988038
188	0x395dc47d	0.000211494
189	0x3b424963	0.0029645793
190	0xb9fbbfe6	-0.00048017426
191	0x3a6583b1	0.000875528
192	0xb85419a3	-5.0568615e-05
193	0x381afa27	3.6949434e-05
194	0x399705a2	0.0002880516
195	0x38e20802	0.00010778011
196	0xb8c593b2	-9.4212024e-05
197	0xb9d6703d	-0.00040900885
198	0xbb97d490	-0.0046334937
199	0xbd25eb4f	-0.04050761
200	0xbd0f35fa	-0.034963585
201	0xbd173d48	-0.036923677
202	0x3d6063df	0.054782744
203	0x3e0f13e1	0.13972427
204	0x3d5e855d	0.054326404
205	0x3c366811	0.01113321
206	0xbd22535f	-0.03963029
207	0xbde7fed6	-0.11327903
208	0xbce98215	-0.02850441
209	0xbd8e7446	-0.06955771
210	0xbdf77646	-0.12083106
211	0x3bdc742b	0.0067277155
212	0xbba6841a	-0.0050816657
213	0x3a40bcda	0.000735236
214	0x3b907536	0.004408504
215	0xbd5e480b	-0.054267924
216	0xbbe39cf0	-0.0069461986
217	0xba81efdb	-0.0009913401
218	0xbd81ea73	-0.06343546
219	0xbdd9b8f1	-0.10630978
220	0xbd263ce9	-0.040585432
221	0xbc5a56af	-0.013326331
222	0xbcdb3288	-0.026757494
223	0xbbdfbd69	-0.0068279994
224	0xbd6d4464	-0.05792655
225	0xbcdcd17b	-0.026955357
226	0x3ad034d8	0.0015884889
227	0x3c8aaf25	0.016929219
228	0xbc67b655	-0.014142592
229	0xbbab9f5a	-0.005237502
230	0x3c522535	0.012826254
231	0xbd300088	-0.042969257
232	0x3cda4968	0.026646331
233	0xbd53fb2c	-0.051753208
234	0xbbc93690	-0.0061405376
235	0xbbaab95e	-0.005210086
236	0x3d7c9904	0.061669365
237	0x3c1ef023	0.009700808
238	0x3bf08c8e	0.007340974
239	0x3d8ecc33	0.06972542
240	0x3d29ceef	0.041457113
241	0xbbf4dc82	-0.0074725756
242	0xb992517d	-0.00027908004
243	0x3d9be4cd	0.07612
244	0x3bba97bb	0.005694357
245	0xbbe7e282	-0.0070765624
246	0xbcd9bc98	-0.026579186
247	0xbc4d7b91	-0.012541668
248	0x3cd36d90	0.02580908
249	0x3cf02102	0.029312614
250	0xbd0b0b95	-0.033946592
251	0xbd83bc7f	-0.06432437
252	0xbda948ae	-0.08265816
253	0xbd6ec18b	-0.058290046
254	0x3c1c9e3b	0.009559209
255	0xbce9802b	-0.028503498

model.lstm.weight_hh_l0 f4 [256, 64]
0	0x3c70ffa9	0.014709392
1	0xb90b78b8	-0.00013301044
2	0x3a4932bd	0.0007675102
3	0xb9721bed	-0.00023089322
4	0xbab1a44d	-0.0013552994
5	0x3a1d10b4	0.00059915637
6	0xb9ac5df8	-0.0003287641
7	0x39049580	0.00012644194
8	0xbb421cd8	-0.0029619243
9	0x3c5163d8	0.012780152
10	0x39836960	0.00025064778
11	0x3c3d9fd9	0.011573755
12	0x3c2f1a72	0.010687457
13	0xbb120124	-0.0022278512
14	0x3ae9dcc2	0.001784228
15	0xba5db404	-0.00084573054
16	0x3b3f5276	0.0029193438
17	0xb9571531	-0.00020511892
18	0x392a730a	0.00016255319
19	0xb97d4b91	-0.00024156111
20	0xba0692e8	-0.0005133585
21	0xbb131168	-0.0022440795
22	0xbacba399	-0.0015536427
23	0xbaca12d2	-0.0015416986
24	0x3b2f6098	0.0026760455
25	0xb9c4e21f	-0.00037552507
26	0xbb50d42f	-0.0031864753
27	0x39a5c174	0.00031615386
28	0xb8f4dc9b	-0.000116759176
29	0xb9cf2027	-0.00039506072
30	0xbb62f81d	-0.003463275
31	0x392c3548	0.00016423047
32	0x3a724ff9	0.0009243484
33	0x3acea565	0.0015765844
34	0x3b33af12	0.0027417582
35	0xb9b49480	-0.00034442917
36	0x3ac948be	0.0015356762
37	0x3b5b4b7f	0.0033461747
38	0xb9a0b1c7	-0.00030650033
39	0x39df5464	0.0004259675
40	0xbab1b604	-0.0013558273
41	0xbbc6c7c6	-0.0060662953
42	0x3b317d5a	0.0027082772
43	0xb951a79f	-0.00019994237
44	0x3b34175c	0.0027479744
45	0xbba957ed	-0.0051679523
46	0x3a91751d	0.0011097525
47	0xbacf5569	-0.0015818301
48	0xbaef5885	-0.0018260634
49	0xba547438	-0.0008104476
50	0xb81d2c67	-3.747307e-05
51	0xbc2ef59c	-0.010678675
52	0xbaa7ee11	-0.0012812038
53	0x39a07fd7	0.00030612826
54	0xb8460cde	-4.7218862e-05
55	0x3a210cb9	0.00061435584
56	0xba1759b6	-0.0005773561
57	0x39caaabe	0.00038655655
58	0x39d3c5e4	0.00040392496
59	0x39f1db24	0.00046130375
60	0x396b2b91	0.00022427576
61	0x399fb4e7	0.00030461626
62	0xbb217e41	-0.0024641904
63	0xbac7e9f5	-0.001525222
64	0x37f91478	2.9692645e-05
65	0x365b1a09	3.2648697e-06
66	0xb87dd080	-6.051408e-05
67	0xb78a5848	-1.6491991e-05
68	0xb6cb84b1	-6.0653188e-06
69	0x362cf48f	2.577235e-06
70	0x37e204ad	2.6943477e-05
71	0x37fe1526	3.0289008e-05
72	0x3946586e	0.00018915694
73	0xb8ac52bd	-8.21701e-05
74	0xb68d3821	-4.2086617e-06
75	0xb8dedeab	-0.0001062726
76	0x395396b3	0.00020178668
77	0x393c57d3	0.00017961794
78	0x3827de01	4.002266e-05
79	0xb6574022	-3.2074827e-06
80	0xb8846835	-6.3136606e-05
81	0x38031c63	3.125927e-05
82	0x36166d10	2.2415225e-06
83	0x36a1dc8e	4.82385e-06
84	0x37c5544b	2.3523482e-05
85	0x398b91e6	0.0002662085
86	0x38f91cb3	0.00011878591
87	0x388f179d	6.82317e-05
88	0xb8c1ec3a	-9.246958e-05
89	0xb61b2e83	-2.3123873e-06
90	0xb7f1a744	-2.8807328e-05
91	0xb8745691	-5.8254755e-05
92	0xb67528f3	-3.653168e-06
93	0xb5c5d432	-1.4739401e-06
94	0x387d1dc9	6.034764e-05
95	0x376e0d98	1.41890705e-05
96	0xb745494a	-1.1759179e-05
97	0xb8860a68	-6.391556e-05
98	0xb83d93e9	-4.5198864e-05
99	0xb72e9c8b	-1.0407656e-05
100	0xb8cf5cd2	-9.887818e-05
101	0xb76803cf	-1.3829164e-05
102	0x364edc18	3.0824503e-06
103	0x38f014e7	0.00011447985
104	0x38809efb	6.133128e-05
105	0xb8025661	-3.1074862e-05
106	0xb7757aa5	-1.4631693e-05
107	0x353140ad	6.6031754e-07
108	0xb8bf79cb	-9.1302754e-05
109	0x3877ebc1	5.9108952e-05
110	0xb8a3852b	-7.79725e-05
111	0xb8fadb85	-0.00011961818
112	0x388d2d46	6.731837e-05
113	0xb9622b82	-0.00021569247
114	0xb55bb37a	-8.184503e-07
115	0x39447f65	0.00018739475
116	0x38bbf2b1	8.96206e-05
117	0xb61e3f52	-2.3580692e-06
118	0x3743134f	1.1627401e-05
119	0x374d21d5	1.2226829e-05
120	0xb65dbaee	-3.3040374e-06
121	0x38a97e9e	8.082132e-05
122	0x35a26a80	1.2100936e-06
123	0x36554db2	3.1784698e-06
124	0x381cb2d4	3.7359845e-05
125	0x378afbd4	1.6568149e-05
126	0x39055bad	0.0001271802
127	0x38a19a43	7.705812e-05
128	0xb9cb920e	-0.00038827996
129	0xb722b551	-9.6981685e-06
130	0xb891b934	-6.9486356e-05
131	0xb7cd9453	-2.4506973e-05
132	0xb7b7187e	-2.1826705e-05
133	0x372005d0	9.5380965e-06
134	0x37cb0564	2.4201996e-05
135	0x3719e486	9.172718e-06
136	0x3a2403e2	0.0006256682
137	0x3892670d	6.981017e-05
138	0x37b89c7a	2.2007374e-05
139	0xb99396a1	-0.00028150252
140	0x3a3c9995	0.00071945164
141	0x398c2e1f	0.00026737244
142	0xb9b887c8	-0.0003519638
143	0xb6d29f0d	-6.2770036e-06
144	0xb92b1d6d	-0.00016318793
145	0x3647244b	2.9674436e-06
146	0x37bba673	2.2369646e-05
147	0xb7d3b016	-2.5235156e-05
148	0x386c58b4	5.6349396e-05
149	0x3a224a0e	0.00061908446
150	0x3a03ab57	0.0005022785
151	0x38c953e6	9.600054e-05
152	0xb95de9f8	-0.00021163363
153	0x358a704e	1.0314486e-06
154	0x37196382	9.142679e-06
155	0xb7ad5d9a	-2.0666794e-05
156	0xb69a1fa7	-4.5932425e-06
157	0x36a82214	5.0107574e-06
158	0x390376e5	0.00012537425
159	0x36f7ac52	7.3812344e-06
160	0xb8845163	-6.30941e-05
161	0xb8fcba0a	-0.00012050949
162	0xb98a1a81	-0.00026341158
163	0xb6cf2252	-6.173076e-06
164	0xb93e3403	-0.00018139188
165	0xb90546ed	-0.0001271029
166	0xb7ab150e	-2.0394593e-05
167	0xb9d62a55	-0.000408488
168	0x390b725e	0.00013298678
169	0xb986276a	-0.00025587837
170	0x383670b5	4.3497148e-05
171	0x343c3e8b	1.7531617e-07
172	0xb86ccce4	-5.6457604e-05
173	0x39de0473	0.00042346455
174	0xb895a625	-7.1358205e-05
175	0xb9c63bc3	-0.0003781003
176	0x3963b65a	0.00021716338
177	0xb7bfb85c	-2.2854823e-05
178	0x37bdd4c5	2.2629634e-05
179	0xb9dcb3d6	-0.00042095658
180	0x38bcd8b9	9.004906e-05
181	0x36c1b889	5.773331e-06
182	0xb5b1d083	-1.3248213e-06
183	0x36dccf9f	6.580681e-06
184	0xb6d022b7	-6.2029244e-06
185	0xba33ef46	-0.00068639626
186	0x378f0edf	1.7053853e-05
187	0x36d65d86	6.3885846e-06
188	0x36d5b4ad	6.368928e-06
189	0xb8030de6	-3.1245778e-05
190	0x39d8122d	0.00041212272
191	0x39157f0c	0.00014257076
192	0x37ce54de	2.4596633e-05
193	0x36d925c6	6.4715014e-06
194	0xb794d9a0	-1.7744314e-05
195	0xb62e91d5	-2.6012906e-06
196	0xb6804371	-3.8225485e-06
197	0x35a3d8fd	1.2207598e-06
198	0x37f8ae5b	2.9645094e-05
199	0x36f90f63	7.4225695e-06
200	0x3901f899	0.00012395009
201	0xb7f34acd	-2.900269e-05
202	0x359dcc1b	1.1756814e-06
203	0xb8d295b1	-0.000100414625
204	0x394f16be	0.0001974953
205	0x38fc50dd	0.00012031358
206	0x37842d57	1.575674e-05
207	0xb6c0ae15	-5.7423117e-06
208	0xb84543d7	-4.703164e-05
209	0x3701ac02	7.729048e-06
210	0xb58ac82b	-1.0340058e-06
211	0xb5556d5f	-7.950784e-07
212	0x361c0a08	2.325165e-06
213	0x39784dff	0.00023680179
214	0x38df6a19	0.00010653231
215	0x379a64bf	1.8405144e-05
216	0x35e588ea	1.7101677e-06
217	0xb5fe8d05	-1.8965517e-06
218	0xb7540625	-1.2637615e-05
219	0xb6cfe7aa	-6.19605e-06
220	0xb7bc665d	-2.2459013e-05
221	0xb59b158a	-1.1554669e-06
222	0x37cfcd21	2.4771844e-05
223	0xb630cae6	-2.6344146e-06
224	0xb78247d5	-1.5530657e-05
225	0xb80be350	-3.3351884e-05
226	0xb897152a	-7.204183e-05
227	0xb800b1f0	-3.0683295e-05
228	0xb82f06d4	-4.172961e-05
229	0xb83c43b0	-4.488573e-05
230	0xb511e6d1	-5.435259e-07
231	0x3881a5e6	6.1821e-05
232	0x385bdeba	5.24211e-05
233	0xb815542a	-3.5602752e-05
234	0xb70c6ae8	-8.369541e-06
235	0x3578c264	9.2670075e-07
236	0xb8997874	-7.318045e-05
237	0x36fd30ca	7.5456674e-06
238	0xb84cef49	-4.886024e-05
239	0xb8cd176d	-9.779525e-05
240	0x38489c6c	4.7829395e-05
241	0xb9142713	-0.00014128936
242	0xb67a7406	-3.7320438e-06
243	0x39066bb0	0.00012819353
244	0x380d0fea	3.363184e-05
245	0xb648b327	-2.9906603e-06
246	0x362dc944	2.589616e-06
247	0x3657e3a2	3.2169996e-06
248	0xb6c30525	-5.8120518e-06
249	0x37150cd9	8.884083e-06
250	0x36fc14d8	7.512612e-06
251	0x35a393e5	1.2187489e-06
252	0x37877555	1.6147891e-05
253	0x378a4e20	1.6487262e-05
254	0x38773624	5.893981e-05
255	0x3811b95d	3.4743327e-05

model.lstm.bias_ih_l0 f4 [256]
0	0x3d0f4fa8	0.034988075
1	0x3a1d38d9	0.00059975457
2	0x3b2a90e1	0.0026026296
3	0x3a3ea67c	0.0007272733
4	0x3913895a	0.0001407018
5	0x384741fd	4.7506754e-05
6	0x39b760df	0.00034976655
7	0x3a3d851f	0.00072296144
8	0x3d1461d7	0.03622612
9	0x3e40e514	0.18837386
10	0x3a0e80c0	0.00054360554
11	0x3e03bef7	0.12865816
12	0x3daa1bbc	0.08306071
13	0x3d423d91	0.047421996
14	0x3dcbde30	0.09954488
15	0x3852c217	5.0248662e-05
16	0x3cc4b039	0.02400981
17	0x3b484183	0.0030556626
18	0x3a92d77b	0.0011203134
19	0x3997eaaf	0.00028975817
20	0x3b04ff58	0.0020293798
21	0x3df2e95d	0.11860917
22	0x3d8b2321	0.0679381
23	0x3bcf88eb	0.0063334606
24	0x3d215873	0.039390992
25	0x378a71c4	1.6503858e-05
26	0x3ab56fbb	0.0013842502
27	0x3aaad720	0.0013034083
28	0x3a8c54f5	0.0010706472
29	0x37ebaba4	2.809411e-05
30	0x3c4b73ec	0.012417775
31	0x3a60a86a	0.00085700175
32	0x3ac877d2	0.0015294498
33	0x3bc56f40	0.006025225
34	0x3ccc5193	0.024941241
35	0x3a25106a	0.00062966964
36	0x3b9808e1	0.0046397303
37	0x3c40f285	0.011776571
38	0x39d9417b	0.00041438252
39	0x3e45da88	0.19321644
40	0x3c2acd8c	0.010424983
41	0x3d0d1c6f	0.034450945
42	0x3beecb18	0.0072873943
43	0x377d2d8e	1.5090582e-05
44	0x3db5d5a4	0.08878639
45	0x3d90d8d7	0.07072609
46	0x3b43aa9c	0.002985633
47	0x3c5eaa80	0.013590455
48	0x3bc3cc7a	0.0059753032
49	0x3ddef578	0.10886663
50	0x39e20ab5	0.00043114056
51	0x3dfe7ef3	0.124265574
52	0x3b6e7440	0.0036385208
53	0xb5ba1399	-1.3863784e-06
54	0x3815cba7	3.5714034e-05
55	0x37a4a2b2	1.9626084e-05
56	0x39d86151	0.00041271237
57	0x3e2cad14	0.16862899
58	0x3a1b1832	0.0005916386
59	0x36a0c511	4.791313e-06
60	0x39c21f8d	0.0003702607
61	0x3b7e84a4	0.0038836384
62	0x3cb5751a	0.022150565
63	0x3bb4a31c	0.005512608
64	0x3d580462	0.052738555
65	0x38f55932	0.00011699124
66	0x38e010b1	0.00010684261
67	0x388986b2	6.557758e-05
68	0x38a61e1e	7.9211066e-05
69	0x37af7c4b	2.0919504e-05
70	0x392f6800	0.00016728044
71	0xb79e0397	-1.883674e-05
72	0x3c913ef0	0.017730206
73	0x3d9a77bc	0.07542369
74	0x3897232f	7.2067945e-05
75	0x3e6988fa	0.22806159
76	0x3d7dd3be	0.06196951
77	0x3d9727f1	0.07380665
78	0x3df7a42d	0.12091861
79	0x38034fb6	3.130707e-05
80	0x3bd88b58	0.006608408
81	0x399aab44	0.00029500772
82	0x38bf1e7a	9.1132664e-05
83	0x38d565af	0.000101755715
84	0x390670a8	0.00012821204
85	0x3e30ff46	0.17284879
86	0x3d2bd30a	0.04194931
87	0x39e6a192	0.00043989398
88	0x3c0b1f00	0.008491278
89	0x37405e0e	1.1465991e-05
90	0x3a71d95b	0.0009225809
91	0xb848707e	-4.7788482e-05
92	0xb796b27b	-1.7964505e-05
93	0x37a44c55	1.9585868e-05
94	0x3c3fe3d8	0.011712037
95	0x3886eb4e	6.433447e-05
96	0x38939685	7.037543e-05
97	0x3a06dab9	0.00051442866
98	0x3bac0bd8	0.0052504353
99	0x381a3f7d	3.677559e-05
100	0x3a5bab30	0.0008379696
101	0x3b474b57	0.0030409896
102	0x38972118	7.206405e-05
103	0x3e62c806	0.22146615
104	0x3a89f7d5	0.001052613
105	0x3cf94267	0.03042717
106	0x3b9877a5	0.0046529346
107	0x36d1edb3	6.256357e-06
108	0x3da8c687	0.08240991
109	0x3ca4d8d7	0.020122929
110	0x38bd5292	9.027602e-05
111	0x3c4aca41	0.012377323
112	0x3a314709	0.0006762599
113	0x3e207942	0.15671256
114	0x3944e122	0.00018775885
115	0x3e1caf3a	0.15301219
116	0x39311f41	0.00016891678
117	0x3785e386	1.5960784e-05
118	0x360df8f2	2.1155543e-06
119	0x3786bb26	1.6061193e-05
120	0x381c8666	3.7318467e-05
121	0x3e19cca6	0.15019473
122	0x3843cb23	4.668081e-05
123	0x358d6f45	1.0537702e-06
124	0xb78ea360	-1.7003797e-05
125	0x3ad09f31	0.0015916583
126	0x3bae30f8	0.005315896
127	0x3a49a4a5	0.00076920755
128	0xbd4b60f3	-0.049653005
129	0x3ba08f4f	0.004899896
130	0x3c2ec17d	0.010666248
131	0x3bc4adcb	0.006002163
132	0xb9f351ca	-0.0004640951
133	0x3a61c939	0.00086130534
134	0xbc43a1fe	-0.011940477
135	0xbbd2cdb5	-0.0064332136
136	0xbc421ccc	-0.011847686
137	0x3e45a11e	0.19299743
138	0xbbac7637	-0.0052631157
139	0xbd2edf8f	-0.04269367
140	0x3d8c1c42	0.06841327
141	0xbdaff13b	-0.08590933
142	0xbda79664	-0.081829816
143	0xb9f5f257	-0.000469106
144	0x3d042644	0.032263055
145	0xbc2cbf79	-0.0105436975
146	0xbc1e59ad	-0.009664935
147	0x3b606f9a	0.0034246207
148	0xbc301644	-0.010747496
149	0xbc12e547	-0.008965797
150	0xbcb058ca	-0.021526713
151	0xbc406407	-0.011742598
152	0x3cdbf714	0.026851214
153	0xba0a65f9	-0.00052794773
154	0x3a65c723	0.00087653304
155	0x3c07c35b	0.0082863225
156	0x3bfabfc6	0.0076522557
157	0xb9c0358c	-0.0003666099
158	0xbd018c19	-0.03162775
159	0xbbd3ce48	-0.0064637996
160	0x3c4c808e	0.012481822
161	0x3c51f5ff	0.012814998
162	0x3cb5b27f	0.02217984
163	0x3bbed2fb	0.0058234907
164	0x3bef559c	0.0073039066
165	0x3cf8ae0f	0.030356435
166	0x3b966836	0.0045900596
167	0xbe122f39	-0.14275827
168	0xbc44cd56	-0.0120118465
169	0x3dbbd09f	0.09170651
170	0x3d120d0b	0.03565697
171	0x37fd9bb8	3.0232462e-05
172	0x3db5b839	0.08873028
173	0xbd29ab3e	-0.041423075
174	0x3c106cd9	0.008815014
175	0xbcba6cb9	-0.022756921
176	0xbbfcf8df	-0.0077200974
177	0xbd2a6a25	-0.041605134
178	0xbbd3268e	-0.006443805
179	0xbca0dc4e	-0.0196363
180	0xbc1907ee	-0.0093402695
181	0xba085d2b	-0.00052018714
182	0xba4947bc	-0.0007678231
183	0x3a18d376	0.000582985
184	0x3b8a5518	0.0042215697
185	0x3c8dd4a5	0.01731331
186	0xbb987d9a	-0.0046536447
187	0x3a067625	0.0005129299
188	0xbb956ea2	-0.0045603076
189	0x3bc8ac83	0.0061240806
190	0xbc887e72	-0.016661856
191	0xbbeafa9b	-0.007170988
192	0x3d52cd5e	0.051465385
193	0x3a200912	0.0006104867
194	0x3b2dd8a0	0.0026526824
195	0x3a41f9f3	0.0007399611
196	0x3903df53	0.00012576328
197	0x383a9b5d	4.449055e-05
198	0x39b75a90	0.00034971954
199	0x3a3f3690	0.0007294202
200	0x3d2115ed	0.03932755
201	0x3e381031	0.17974927
202	0x3a109729	0.00055156887
203	0x3e0b0f45	0.13580044
204	0x3dba2dea	0.09090789
205	0x3d794db5	0.060865123
206	0x3e08aea4	0.1334787
207	0x3849418c	4.798318e-05
208	0x3cce8728	0.025210932
209	0x3b4d15a9	0.0031293428
210	0x3a977ff2	0.0011558516
211	0x39994f6e	0.00029241614
212	0x3b088582	0.002083153
213	0x3e00047a	0.12501708
214	0x3d96dbcd	0.073661424
215	0x3bd44575	0.0064780065
216	0x3d25a229	0.04043785
217	0x3785ee67	1.596585e-05
218	0x3ab989cd	0.0014155448
219	0x3aad4de1	0.0013222062
220	0x3a8e99c6	0.0010879568
221	0x37ef0056	2.8491177e-05
222	0x3c580621	0.013185055
223	0x3a64d89e	0.0008729788
224	0x3acc33fd	0.0015579459
225	0x3bc99e04	0.00615287
226	0x3cd34eb4	0.025794365
227	0x3a26c2c2	0.00063614186
228	0x3b9b457e	0.0047385087
229	0x3c49d437	0.012318662
230	0x39db86e4	0.00041871436
231	0x3e556b0d	0.20841618
232	0x3c2f0cec	0.010684233
233	0x3cf48ee2	0.029853288
234	0x3bf4b5c9	0.0074679595
235	0x3772d043	1.4472814e-05
236	0x3e05a6db	0.13051932
237	0x3d9bf9b4	0.076159865
238	0x3b4692c8	0.003029989
239	0x3c6f2b36	0.014597705
240	0x3bc8b8d8	0.0061255507
241	0x3df3b3b1	0.11899508
242	0x39ee4d53	0.00045452508
243	0x3df801f8	0.121097505
244	0x3b727031	0.003699314
245	0xb603a29e	-1.9615177e-06
246	0x38107d88	3.4449185e-05
247	0x379341af	1.7554352e-05
248	0x39dcaaa5	0.0004208881
249	0x3e200e53	0.15630464
250	0x3a1fbb1a	0.0006093249
251	0x36538e71	3.1524362e-06
252	0x39c1e670	0.00036983518
253	0x3b83cd7c	0.0040222984
254	0x3cbe0beb	0.023199042
255	0x3bb8bf5b	0.0056380457

model.lstm.bias_hh_l0 f4 [256]
0	0x3d0f5440	0.034992456
1	0x3a1d34d2	0.00059969455
2	0x3b2a7fda	0.0026016147
3	0x3a3ea6f2	0.00072728016
4	0x3914f403	0.00014205281
5	0x384b65a3	4.8493628e-05
6	0x39b76260	0.00034977775
7	0x3a3d928e	0.0007231616
8	0x3d1461dd	0.036226142
9	0x3e40e522	0.18837407
10	0x3a0e7d62	0.00054355536
11	0x3e034d99	0.1282257
12	0x3daa1b3e	0.08305977
13	0x3d422cca	0.047405995
14	0x3dcafae9	0.099111386
15	0x3857d0ef	5.145458e-05
16	0x3cc4b033	0.0240098
17	0x3b484192	0.003055666
18	0x3a92e176	0.0011206109
19	0x39985e75	0.00029062075
20	0x3b05010b	0.002029481
21	0x3df2f994	0.118640095
22	0x3d8b23a0	0.06793904
23	0x3bcf88fc	0.0063334685
24	0x3d215876	0.039391004
25	0x378da3a5	1.6884713e-05
26	0x3ab9ed6a	0.0014185135
27	0x3aaad320	0.0013032891
28	0x3a8c4ad2	0.001070345
29	0x37ee7547	2.8426422e-05
30	0x3c4b7408	0.012417801
31	0x3a60d5d8	0.0008576787
32	0x3ac879bc	0.0015295069
33	0x3bc56f50	0.0060252324
34	0x3ccc51a5	0.024941275
35	0x3a250115	0.0006294412
36	0x3b9808e3	0.0046397313
37	0x3c40f27e	0.011776565
38	0x39d919ae	0.00041408598
39	0x3e44d60f	0.19222282
40	0x3c2acdae	0.010425014
41	0x3d0d1463	0.03444327
42	0x3beecac3	0.0072873547
43	0x377629c6	1.4672469e-05
44	0x3db5d4ce	0.0887848
45	0x3d90d8da	0.07072611
46	0x3b43b079	0.0029859825
47	0x3c5eaa27	0.013590372
48	0x3bc3ce65	0.005975532
49	0x3ddf732d	0.1091064
50	0x39e213fa	0.00043120963
51	0x3dfe5f21	0.12420488
52	0x3b6e748e	0.003638539
53	0xb57108f6	-8.9792536e-07
54	0x3815ae51	3.5686713e-05
55	0x37a4cee9	1.9646674e-05
56	0x39d89a53	0.0004131371
57	0x3e2c9f5a	0.16857663
58	0x3a1b1851	0.0005916404
59	0x36970dfc	4.5017787e-06
60	0x39c2630c	0.0003707636
61	0x3b7e5c38	0.003881229
62	0x3cb57510	0.022150546
63	0x3bb4a31f	0.0055126096
64	0x3d584317	0.052798357
65	0x38f7a91c	0.00011809377
66	0x38e04ed2	0.00010695834
67	0x388c5f41	6.693463e-05
68	0x38a1a811	7.708383e-05
69	0x379224a5	1.742162e-05
70	0x392f683f	0.00016728135
71	0xb7a49a74	-1.9622246e-05
72	0x3c913efb	0.017730227
73	0x3d9a779f	0.07542347
74	0x3896721f	7.173814e-05
75	0x3e69f999	0.2284912
76	0x3d7dd3c2	0.061969526
77	0x3d971eb8	0.07378906
78	0x3df7f8eb	0.12108024
79	0x3809c540	3.284705e-05
80	0x3bd88b79	0.0066084233
81	0x399b0fab	0.00029575577
82	0x38bc5749	8.980797e-05
83	0x38d4aba0	0.000101409154
84	0x3904925f	0.00012643028
85	0x3e30f939	0.17282571
86	0x3d2bd477	0.04195067
87	0x39e6a99c	0.00043995387
88	0x3c0b1efe	0.008491276
89	0x373e2ab7	1.1334828e-05
90	0x3a6e180e	0.0009082564
91	0xb84dbab4	-4.904969e-05
92	0xb798aa45	-1.81991e-05
93	0x37a4fc38	1.9667772e-05
94	0x3c3fe3ac	0.011711996
95	0x38869ef5	6.419226e-05
96	0x3893d6d5	7.049522e-05
97	0x3a06962a	0.00051340705
98	0x3bac0baa	0.005250414
99	0x380e788c	3.3967706e-05
100	0x3a5baad3	0.0008379642
101	0x3b474b42	0.0030409847
102	0x389723f7	7.20694e-05
103	0x3e648fe5	0.22320516
104	0x3a8a1a4e	0.0010536404
105	0x3cf98e0d	0.030463243
106	0x3b98786c	0.0046530273
107	0x36d03e4a	6.2061345e-06
108	0x3da8c4d8	0.0824067
109	0x3ca4d8f1	0.020122977
110	0x38be25dd	9.0669586e-05
111	0x3c4ac99f	0.012377172
112	0x3a31485e	0.0006762798
113	0x3e2094f9	0.15681829
114	0x3944e5a1	0.0001877756
115	0x3e1cb5a8	0.15303671
116	0x3930da8d	0.00016866084
117	0x37863e92	1.6003181e-05
118	0x3602d6e2	1.9496588e-06
119	0x3786e85d	1.6082247e-05
120	0x381c2b57	3.723366e-05
121	0x3e19c664	0.15017086
122	0x3845ebde	4.718813e-05
123	0x35b24413	1.3281846e-06
124	0xb78dcb9d	-1.6903325e-05
125	0x3ad09c6e	0.001591576
126	0x3bae310d	0.005315906
127	0x3a49a54e	0.0007692174
128	0xbc4de946	-0.012567824
129	0x3ba0ca6b	0.0049069426
130	0x3c2c13a8	0.010502733
131	0x3bc4fd72	0.0060116583
132	0xb9f3505b	-0.0004640844
133	0x3a61c964	0.00086130784
134	0xbaf39191	-0.0018582811
135	0xbbd2b4b4	-0.006430233
136	0xbcac73e5	-0.021051357
137	0x3e49e817	0.19717441
138	0xbbacef87	-0.0052775773
139	0xbb40ece5	-0.0029438075
140	0x3db6e236	0.08929865
141	0xbca38522	-0.019960944
142	0xbd8d6388	-0.0690375
143	0xb9f6ca7a	-0.00047071633
144	0x3d06b4be	0.032887213
145	0xbc2e95c3	-0.010655823
146	0xbc081f0e	-0.008308185
147	0x3b60b5fc	0.0034288159
148	0xbc36e8ea	-0.0111639295
149	0xbd97c665	-0.07410888
150	0x3cf977bc	0.030452602
151	0xbc655f1f	-0.013999729
152	0x3cbcc47f	0.023042915
153	0xba09179d	-0.0005229654
154	0x3a65c7b0	0.00087654125
155	0x3c084c3a	0.008318955
156	0x3bf83186	0.007574263
157	0xb9c0359c	-0.00036661036
158	0xbd47f3b5	-0.0488164
159	0xbbd360c0	-0.0064507425
160	0x3c200647	0.009767122
161	0x3c6f5344	0.014607254
162	0x3cb58c2c	0.022161566
163	0x3bbed374	0.005823547
164	0x3be35092	0.006937095
165	0x3d01f3ca	0.031726636
166	0x3b96135f	0.004579946
167	0xbdc46130	-0.095888495
168	0xbc66a9a0	-0.014078528
169	0x3c070f95	0.008243461
170	0x3d2872c7	0.041125085
171	0x37ef3a1d	2.8518081e-05
172	0x3bbf13e1	0.005831227
173	0xbd35c46b	-0.044376772
174	0x3c101134	0.008793164
175	0x3bd4988d	0.006487912
176	0xbbefefc0	-0.0073222816
177	0x3d788018	0.060669035
178	0xbc3d28ad	-0.011545342
179	0x3d4d0b83	0.050059807
180	0xbc17d1b2	-0.009266304
181	0xba085eab	-0.0005202095
182	0xba48a9bf	-0.00076546887
183	0x399fdff6	0.00030493707
184	0x3ba38dc8	0.004991267
185	0xbd2e4c0b	-0.04255299
186	0xbbf56f12	-0.0074900473
187	0x39f859c2	0.0004736912
188	0xbb956cb1	-0.004560076
189	0x3ca5efa0	0.020255864
190	0xbc917f69	-0.01776095
191	0xbca1a903	-0.019733911
192	0x3d52d42a	0.051471867
193	0x3a200b35	0.00061051856
194	0x3b2dcbd8	0.0026519205
195	0x3a41f10b	0.0007398284
196	0x390f6b91	0.00013677614
197	0x38328f80	4.2572152e-05
198	0x39b75af9	0.0003497226
199	0x3a3f384a	0.00072944595
200	0x3d2115e0	0.039327502
201	0x3e38108b	0.1797506
202	0x3a109d14	0.00055165705
203	0x3e0bf4c1	0.13667585
204	0x3dba2e1a	0.090908244
205	0x3d792864	0.060829535
206	0x3e09730b	0.13422792
207	0x38474109	4.7505866e-05
208	0x3cce8733	0.025210952
209	0x3b4d2eca	0.0031308406
210	0x3a978403	0.0011559728
211	0x399984d5	0.00029281402
212	0x3b088b1d	0.002083487
213	0x3dffb68c	0.1248599
214	0x3d96db47	0.073660426
215	0x3bd44355	0.006477753
216	0x3d25a22e	0.04043787
217	0x3782c04e	1.5586756e-05
218	0x3aba3ab6	0.0014208171
219	0x3aad48ed	0.0013220586
220	0x3a8e8199	0.0010872363
221	0x37ee6015	2.8416553e-05
222	0x3c5806f9	0.013185256
223	0x3a64be29	0.0008725846
224	0x3acc33a2	0.0015579353
225	0x3bc99dd3	0.0061528473
226	0x3cd34eb7	0.02579437
227	0x3a268681	0.000635244
228	0x3b9b45ab	0.0047385297
229	0x3c49d2fc	0.012318369
230	0x39db7271	0.000418562
231	0x3e57bb35	0.21067508
232	0x3c2f0d46	0.010684317
233	0x3cf52e8b	0.02992942
234	0x3bf4b31d	0.007467641
235	0x3776c4b8	1.4708545e-05
236	0x3e05a6d1	0.13051917
237	0x3d9bf9cd	0.07616005
238	0x3b469257	0.0030299628
239	0x3c6f2a88	0.014597543
240	0x3bc8b8bf	0.006125539
241	0x3df1d4f4	0.11808196
242	0x39ee4a2c	0.0004545016
243	0x3df87fc6	0.12133746
244	0x3b727034	0.0036993148
245	0xb6168fd7	-2.2435468e-06
246	0x380ebcf8	3.403143e-05
247	0x3793635c	1.7570033e-05
248	0x39dcad51	0.000420908
249	0x3e201a7b	0.15635101
250	0x3a1fc535	0.0006094755
251	0x3663beb8	3.3936649e-06
252	0x39c1aed2	0.0003694208
253	0x3b83d425	0.0040230923
254	0x3cbe0bcf	0.02319899
255	0x3bb8bf50	0.0056380406

model.fc1.weight f4 [64, 64]
0	0x3d2af0f7	0.04173371
1	0x3bc67946	0.0060569374
2	0x3c094369	0.008377888
3	0x3bc961d0	0.0061456934
4	0x3b0e20b4	0.0021686973
5	0xba750073	-0.0009346075
6	0x3b76d815	0.0037665416
7	0xbb90ecb3	-0.004422748
8	0xbb29d825	-0.0025916186
9	0x3dc59123	0.09646823
10	0xbbb38db4	-0.005479539
11	0x3ce9409b	0.02847319
12	0x3da5b0be	0.080903515
13	0x3c265e25	0.010154282
14	0xbd99c52a	-0.07508309
15	0x3aca8a6d	0.0015452631
16	0x3ce40bd3	0.02783767
17	0xbc36005b	-0.011108483
18	0xbbc85f6c	-0.006114891
19	0x3b9af7aa	0.004729231
20	0xbc01ebdf	-0.007929771
21	0xbcb7ffd2	-0.022460852
22	0xbd6d52c1	-0.05794025
23	0xbc5b2e78	-0.013377778
24	0x3d2b6232	0.041841693
25	0x3a1d627d	0.00060037506
26	0x3bc95007	0.006143573
27	0x3bccaada	0.006245953
28	0x3bc8d4e5	0.0061288946
29	0x3a34e66c	0.00069007906
30	0x3b8671bd	0.004102914
31	0xbbd5a03f	-0.006519347
32	0x3bb8cad7	0.005639415
33	0x3c50f0ff	0.01275277
34	0x3ce827f3	0.028339362
35	0x3b97263c	0.004612712
36	0x3bc3a00f	0.005970008
37	0x3ca9ccab	0.020727476
38	0x3ba2d043	0.0049686744
39	0xbdca0e6a	-0.098660305
40	0xbc98cc7a	-0.01865219
41	0x3ccb5692	0.024821553
42	0x3c9d771d	0.019221837
43	0x3a52c097	0.00080395624
44	0x3df3082a	0.118667915
45	0xbd557425	-0.052112717
46	0x3c0496e4	0.008092616
47	0xbc98d3d8	-0.018655702
48	0xbc0c52b3	-0.008564639
49	0x3d95f072	0.07321252
50	0xbb753e85	-0.0037421298
51	0x3dadb662	0.084820524
52	0xbc0e476a	-0.008684019
53	0xbad1a125	-0.0015993459
54	0xb9d14264	-0.0003991305
55	0xbaaac92e	-0.0013029927
56	0x3b8c59f1	0.004283183
57	0x3dbbfdcc	0.09179267
58	0xbba028e5	-0.0048876875
59	0xba2ce545	-0.0006595443
60	0xbb32a292	-0.0027257544
61	0x3c6fd1f4	0.014637459
62	0xbc6abc52	-0.014327126
63	0xbc0da799	-0.008645915
64	0x000002b1	9.65e-43
65	0x80000572	-1.953e-42
66	0x800001f3	-6.99e-43
67	0x0000038a	1.27e-42
68	0x800002fc	-1.07e-42
69	0x800005eb	-2.123e-42
70	0x8000026b	-8.67e-43
71	0x800005c1	-2.064e-42
72	0x8000042c	-1.497e-42
73	0x0000004a	1.04e-43
74	0x80000312	-1.101e-42
75	0x082bc89b	5.169425e-34
76	0x800000fd	-3.55e-43
77	0x800002da	-1.023e-42
78	0x00000128	4.15e-43
79	0x800003f2	-1.415e-42
80	0x000003c4	1.351e-42
81	0x800001dc	-6.67e-43
82	0x000004d7	1.736e-42
83	0x0000035e	1.208e-42
84	0x00000475	1.599e-42
85	0x80000020	-4.5e-44
86	0x80000417	-1.467e-42
87	0x00000235	7.92e-43
88	0x000002bd	9.82e-43
89	0x80000270	-8.74e-43
90	0x00000324	1.127e-42
91	0x80000207	-7.27e-43
92	0x0000053e	1.88e-42
93	0x80000216	-7.48e-43
94	0x00000420	1.48e-42
95	0x800004ba	-1.696e-42
96	0x80000304	-1.082e-42
97	0x00000307	1.086e-42
98	0x00000175	5.23e-43
99	0x800000ae	-2.44e-43
100	0x000003fd	1.431e-42
101	0x00000417	1.467e-42
102	0x00000371	1.235e-42
103	0x83064a5f	-3.9464435e-37
104	0x80000445	-1.532e-42
105	0x0000010f	3.8e-43
106	0x0000025a	8.44e-43
107	0x000001a2	5.86e-43
108	0x80000074	-1.63e-43
109	0x80000191	-5.62e-43
110	0x000003ab	1.316e-42
111	0x00000193	5.65e-43
112	0x0000030d	1.094e-42
113	0x000003a5	1.307e-42
114	0x00000544	1.889e-42
115	0x000002a1	9.43e-43
116	0x80000141	-4.5e-43
117	0x00000116	3.9e-43
118	0x000001d2	6.53e-43
119	0x000006b1	2.4e-42
120	0x0000022a	7.76e-43
121	0x8000020f	-7.38e-43
122	0x80000580	-1.973e-42
123	0x000000e2	3.17e-43
124	0x80000378	-1.244e-42
125	0x80000508	-1.805e-42
126	0x80000095	-2.09e-43
127	0x000001da	6.64e-43
128	0x3d5b54eb	0.05354778
129	0x3c164e71	0.009173975
130	0x3c3e499c	0.0116142295
131	0x3c15102c	0.009098094
132	0x3a7602e3	0.00093845854
133	0x3946a884	0.00018945528
134	0x3b5ea1a4	0.0033970857
135	0xbbe6772f	-0.0070332508
136	0xbc42c84e	-0.011888577
137	0x3dde023e	0.108402714
138	0xbc070d4b	-0.008242915
139	0x3caa533c	0.020791642
140	0x3da4a029	0.080383606
141	0x3c21a69d	0.009866384
142	0xbd9f2adc	-0.07771847
143	0x3a2863b6	0.00064235495
144	0x3d052e81	0.032515053
145	0xbc7349c8	-0.014849134
146	0xbc129319	-0.008946204
147	0x3bebbe85	0.0071943426
148	0xbc378251	-0.011200503
149	0xbc59d17d	-0.013294575
150	0xbd69f3be	-0.057117216
151	0xbc8d745d	-0.0172674
152	0x3d3ba10f	0.045807894
153	0x398054a3	0.00024477122
154	0x3b917d4d	0.004439986
155	0x3c15bfcd	0.009139967
156	0x3c151c59	0.009100997
157	0x39186e82	0.00014537017
158	0x3b1282dd	0.0022355833
159	0xbc1dbec7	-0.009628004
160	0x3c17a5ee	0.009255869
161	0x3c8c6778	0.017139181
162	0x3d0b8a58	0.03406748
163	0x3beea1db	0.0072824783
164	0x3c0f1196	0.00873222
165	0x3cc43b8f	0.023954181
166	0x3bf640ec	0.0075150635
167	0xbdc4766f	-0.09592902
168	0xbcb82248	-0.022477284
169	0x3d1a2dc5	0.037641305
170	0x3ca9a453	0.020708239
171	0x3ac060f1	0.0014677328
172	0x3e0557e4	0.13021809
173	0xbd6de288	-0.058077365
174	0x3c34a762	0.011026235
175	0xbc8f5518	-0.01749663
176	0xbc43290a	-0.01191164
177	0x3d874e57	0.06606739
178	0xbbcd33aa	-0.0062622624
179	0x3db21dbd	0.086970784
180	0xbc419fc0	-0.0118178725
181	0xbb03eff1	-0.002013203
182	0xbae4abce	-0.0017446221
183	0xba9fa970	-0.0012181234
184	0x3bd69405	0.006548407
185	0x3ddca7fa	0.107742265
186	0xbbf03ce8	-0.0073314793
187	0xb9b45b39	-0.00034400242
188	0xbba176f0	-0.0049275085
189	0x3c8bfc87	0.017088188
190	0xbca5ad4e	-0.02022424
191	0xbc3a44c3	-0.011368933
192	0x000003bc	1.34e-42
193	0x80000452	-1.55e-42
194	0x0000031a	1.113e-42
195	0x000006d2	2.447e-42
196	0x0000049c	1.654e-42
197	0x800004c3	-1.708e-42
198	0x800002b6	-9.73e-43
199	0x000000c8	2.8e-43
200	0x80000232	-7.88e-43
201	0x000004c7	1.714e-42
202	0x0000019c	5.77e-43
203	0x00000300	1.076e-42
204	0x800003b7	-1.333e-42
205	0x0000042a	1.494e-42
206	0x0000043d	1.52e-42
207	0x00000187	5.48e-43
208	0x00000344	1.171e-42
209	0x000006aa	2.39e-42
210	0x80000504	-1.799e-42
211	0x00000113	3.85e-43
212	0x80000761	-2.647e-42
213	0x00000095	2.09e-43
214	0x80000397	-1.288e-42
215	0x0000049a	1.651e-42
216	0x00000192	5.63e-43
217	0x00000520	1.839e-42
218	0x000002ba	9.78e-43
219	0x0000058e	1.993e-42
220	0x800000f1	-3.38e-43
221	0x80000114	-3.87e-43
222	0x80000142	-4.51e-43
223	0x80000465	-1.576e-42
224	0x00000184	5.44e-43
225	0x0000014e	4.68e-43
226	0x0000014e	4.68e-43
227	0x00000407	1.445e-42
228	0x00000469	1.582e-42
229	0x80000552	-1.909e-42
230	0x0000048e	1.634e-42
231	0x000000b4	2.52e-43
232	0x00000122	4.06e-43
233	0x00000395	1.285e-42
234	0x8000001f	-4.3e-44
235	0x000001dd	6.68e-43
236	0x000002d1	1.01e-42
237	0x0000002e	6.4e-44
238	0x800004ef	-1.77e-42
239	0x800000dd	-3.1e-43
240	0x000001ee	6.92e-43
241	0x0000006d	1.53e-43
242	0x80000496	-1.645e-42
243	0x800001d0	-6.5e-43
244	0x80000166	-5.02e-43
245	0x00000097	2.12e-43
246	0x80000599	-2.008e-42
247	0x00000560	1.928e-42
248	0x8000009b	-2.17e-43
249	0x8000003d	-8.5e-44
250	0x8000010c	-3.76e-43
251	0x800001eb	-6.88e-43
252	0x8000005b	-1.28e-43
253	0x800004bb	-1.697e-42
254	0x800003b6	-1.331e-42
255	0x000001bc	6.22e-43

model.fc1.bias f4 [64]
0	0x3d4e2299	0.050325964
1	0xaa3fcdff	-1.7035677e-13
2	0x3d507f1e	0.05090248
3	0x8000039f	-1.299e-42
4	0x3d4fa636	0.05069562
5	0x3d68a956	0.056802116
6	0x3cf474ff	0.029840944
7	0x3d4f96eb	0.050681036
8	0x3d029911	0.031884257
9	0x3d57c86b	0.052681368
10	0x9198d8a4	-2.4114887e-28
11	0x3d624e41	0.05525041
12	0x3cf8acf7	0.030355914
13	0x3d01be41	0.03167558
14	0x3cff8352	0.031190548
15	0x3d744113	0.059632372
16	0x3d18742e	0.037220173
17	0x3d46a060	0.04849279
18	0x3cfd831f	0.030946312
19	0x3d16ad18	0.03678617
20	0x3cfd5fb5	0.030929426
21	0x3d5cf883	0.053947937
22	0x3d681ec7	0.056669977
23	0x3d7cb9cf	0.06170064
24	0x8071b9b3	-1.0444027e-38
25	0x3d623367	0.055224802
26	0x3d5f8b28	0.05457607
27	0x3d79d1c0	0.06099105
28	0x3d23bb5f	0.039973613
29	0x3d604869	0.054756556
30	0x3d82e6c0	0.06391668
31	0x3d78474c	0.06061487
32	0x3cf73bc2	0.030179862
33	0x3d4cd52a	0.050007977
34	0x3d7005dc	0.058599338
35	0x3d71f311	0.059069697
36	0xb3160a4a	-3.4933954e-08
37	0x3cfe1167	0.031014157
38	0x3d63dbad	0.05562942
39	0x3d1383e1	0.03601444
40	0x3d54c7ba	0.051948287
41	0x3d74486b	0.059639376
42	0x80001cc0	-1.0314e-41
43	0x3d770791	0.06030995
44	0x835cbd2c	-6.486935e-37
45	0x3d56d424	0.052448407
46	0x3d64a857	0.055824604
47	0x3d45d9ef	0.04830354
48	0x3d7b324d	0.061327267
49	0x3d0d1e3b	0.03445266
50	0x3d5664f1	0.05234236
51	0x3d16db61	0.03683031
52	0x3d56d8b7	0.05245277
53	0x3d63a70d	0.055579234
54	0xafc7950a	-3.6303788e-10
55	0x93c76fb7	-5.034482e-27
56	0x3d59ce41	0.053175215
57	0x3d5320ef	0.05154508
58	0x3d4a05c8	0.04932192
59	0x3d0762c2	0.033053167
60	0x3d03230b	0.03201584
61	0x3d119af3	0.03554816
62	0x3d6d3480	0.057911396
63	0x3d5f92ba	0.05458329

model.fc2.weight f4 [32, 64]
0	0x3d4cd8b0	0.050011337
1	0x00000129	4.16e-43
2	0x3d6c900d	0.057754565
3	0x0000023e	8.04e-43
4	0x3d594a64	0.05304946
5	0x3d74518f	0.059648093
6	0xbcd61eee	-0.026137795
7	0x3d6e256e	0.058141164
8	0xbcd92596	-0.02650718
9	0x3d5d1d08	0.053982764
10	0x00000106	3.67e-43
11	0x3d6f7013	0.05845649
12	0xbca0b03a	-0.019615281
13	0xbc9c0639	-0.019045936
14	0xbcb3632b	-0.021897873
15	0x3d587156	0.05284246
16	0xbcd2d347	-0.02573551
17	0x3d512a52	0.05106575
18	0xbc9e3f52	-0.019317303
19	0xbcc8ab60	-0.02449578
20	0xbccbedb5	-0.024893621
21	0x3d6e87da	0.058235027
22	0x3d6e3970	0.058160245
23	0x3d63f78e	0.05565601
24	0x8000008d	-1.98e-43
25	0x3d4b1c34	0.049587443
26	0x3d6b10b9	0.057388995
27	0x3d5794ac	0.05263202
28	0xbcd39efe	-0.02583265
29	0x3d4e0c9f	0.050305005
30	0x3d5ee92d	0.054421593
31	0x3d7a065a	0.061041214
32	0xbc6194a0	-0.013768345
33	0x3d6c396c	0.05767195
34	0x3d48c466	0.049015425
35	0x3d6c72e2	0.05772675
36	0x11fe4516	4.0116711e-28
37	0xbcaa1275	-0.020760754
38	0x3d63d9da	0.05562768
39	0xbcb9f43f	-0.022699473
40	0x3d595371	0.05305809
41	0x3d4d474d	0.050116826
42	0x80000002	-3e-45
43	0x3d6e3e02	0.058164604
44	0x000003b2	1.326e-42
45	0x3d485f3b	0.048918944
46	0x3d5f87a7	0.054572728
47	0x3d5ea6bf	0.05435824
48	0x3d59d8b6	0.053185187
49	0xbcb155dc	-0.021647386
50	0x3d1f3639	0.03887007
51	0xbccaca7a	-0.024754751
52	0x3d6835d6	0.056691967
53	0x3d6f5d3e	0.058438532
54	0x00000302	1.079e-42
55	0x9319dc09	-1.94198e-27
56	0x3d8232cc	0.06357345
57	0x3d4f2a8f	0.050577696
58	0x3d5645ea	0.05231277
59	0xbcbbc2d1	-0.022920044
60	0xbcf02c6d	-0.029318059
61	0xbccc4f8b	-0.024940273
62	0x3d78910a	0.060685195
63	0x3d5d0112	0.0539561
64	0x3d67794f	0.056512173
65	0x00000385	1.263e-42
66	0x3d785452	0.06062729
67	0x8000006b	-1.5e-43
68	0x3d716c65	0.058941264
69	0x3d762333	0.060092162
70	0xbcc128b6	-0.023578983
71	0x3d7bfbf9	0.061519597
72	0xbcf1e636	-0.029528718
73	0x3d62ac30	0.055339992
74	0x0000047d	1.61e-42
75	0x3d7b14fd	0.061299313
76	0xbcb5b20a	-0.022179622
77	0xbcb884a2	-0.022524182
78	0xbcc39e19	-0.023879098
79	0x3d71079a	0.05884514
80	0xbce263f8	-0.02763556
81	0x3d6c62a4	0.05771126
82	0xbcd13587	-0.02553822
83	0xbcdbc636	-0.026827913
84	0xbca9d4b9	-0.020731317
85	0x3d6e871b	0.058234315
86	0x3d8663dc	0.065620154
87	0x3d80c9b3	0.06288471
88	0x80000353	-1.193e-42
89	0x3d4d40a7	0.050110485
90	0x3d7b6c01	0.061382297
91	0x3d7861b0	0.060640037
92	0xbceeecd0	-0.029165655
93	0x3d62ca51	0.055368725
94	0x3d684048	0.05670193
95	0x3d785cb7	0.060635295
96	0xbcc3ccdd	-0.023901397
97	0x3d7475d6	0.05968269
98	0x3d6ab58f	0.057302054
99	0x3d725e75	0.059172112
100	0x80001e15	-1.0791e-41
101	0xbcd48468	-0.025942042
102	0x3d72e45b	0.059299808
103	0xbcc9512c	-0.024574839
104	0x3d7b19fe	0.061304085
105	0x3d653268	0.055956274
106	0x0000019f	5.82e-43
107	0x3d76c5f3	0.060247373
108	0x8000037a	-1.247e-42
109	0x3d777062	0.06040991
110	0x3d733727	0.05937877
111	0x3d82e57a	0.063914254
112	0x3d73a149	0.059479985
113	0xbced5581	-0.028971436
114	0x3d461a1f	0.048364755
115	0xbce5bf02	-0.028045181
116	0x3d829715	0.06376473
117	0x3d79d4a1	0.060993794
118	0x80000374	-1.239e-42
119	0x13542bff	2.6779854e-27
120	0x3d86bf77	0.06579488
121	0x3d731925	0.05935015
122	0x3d73abc6	0.059489988
123	0xbcd019c1	-0.025402905
124	0xbce60573	-0.02807877
125	0xbcd8ec0d	-0.026479745
126	0x3d7a663b	0.06113265
127	0x3d635ab8	0.055506438
128	0x3d5588c3	0.05213238
129	0x8000035c	-1.205e-42
130	0x3d7a6070	0.061127126
131	0x00000343	1.17e-42
132	0x3d54925c	0.05189739
133	0x3d673f83	0.056457054
134	0xbcca1a5b	-0.02467077
135	0x3d63362c	0.055471584
136	0xbcec30b1	-0.028831812
137	0x3d5d3ce8	0.054013163
138	0x80000414	-1.463e-42
139	0x3d556c26	0.05210509
140	0xbcab4f09	-0.02091171
141	0xbcbba31a	-0.022904921
142	0xbcb1e6a6	-0.021716427
143	0x3d6c6c44	0.057720438
144	0xbcf97937	-0.030453308
145	0x3d56b075	0.052414376
146	0xbcb9767d	-0.022639507
147	0xbcbc3113	-0.02297262
148	0xbcb74bb9	-0.022374975
149	0x3d755c11	0.059902254
150	0x3d74da80	0.05977869
151	0x3d68193e	0.056664698
152	0x000000d8	3.03e-43
153	0x3d521af8	0.05129525
154	0x3d571840	0.05251336
155	0x3d69f20a	0.057115592
156	0xbd01a308	-0.03164962
157	0x3d5b5316	0.053546034
158	0x3d6c4281	0.05768061
159	0x3d759da5	0.059964795
160	0xbcaa03a3	-0.020753687
161	0x3d62c814	0.05536659
162	0x3d5ce5e8	0.053930193
163	0x3d63e341	0.055636648
164	0x8000650d	-3.625e-41
165	0xbcd43e6a	-0.025908668
166	0x3d58c1d1	0.052919213
167	0xbceb2180	-0.028702497
168	0x3d56f9ba	0.05248425
169	0x3d560abf	0.052256342
170	0x0000026b	8.67e-43
171	0x3d5b2816	0.053505026
172	0x000003be	1.342e-42
173	0x3d51b5a1	0.051198605
174	0x3d69c32e	0.057070903
175	0x3d70e4b1	0.058811847
176	0x3d4a1ea1	0.049345616
177	0xbcd14037	-0.025543315
178	0x3d455044	0.04817225
179	0xbcf2008a	-0.029541273
180	0x3d6647a6	0.056220673
181	0x3d5dd8af	0.054161724
182	0x000001c6	6.36e-43
183	0x939ad08c	-3.908071e-27
184	0x3d659421	0.05604947
185	0x3d6109b2	0.054940887
186	0x3d6be18a	0.057588138
187	0xbcbf7e8c	-0.023375772
188	0xbcc9a7fa	-0.02461623
189	0xbcdb3cba	-0.026762355
190	0x3d819fd1	0.06329311
191	0x3d68e41b	0.056858163
192	0xbd10e85c	-0.035377845
193	0x80000386	-1.264e-42
194	0xbd1c7a54	-0.0382026
195	0x0000004d	1.08e-43
196	0xbd1c144f	-0.038105305
197	0xbd1c4234	-0.038149074
198	0x3dc0ef2a	0.09420617
199	0xbd27ffec	-0.04101555
200	0x3dbb234f	0.09137594
201	0xbd1428a5	-0.036171574
202	0x0000030a	1.09e-42
203	0xbd354050	-0.044250786
204	0x3dbe4fa1	0.09292532
205	0x3dc277b1	0.094954856
206	0x3dabac29	0.08382446
207	0xbd2dadf1	-0.04240221
208	0x3dadb401	0.08481599
209	0xbd187dd9	-0.037229393
210	0x3da90b63	0.08254125
211	0x3dccfd0e	0.10009204
212	0x3db867e8	0.090041935
213	0xbd20240d	-0.03909688
214	0xbd386f09	-0.045027766
215	0xbd40c7da	-0.047065593
216	0x000000a1	2.26e-43
217	0xbd1bf4f6	-0.03807541
218	0xbd242de7	-0.04008284
219	0xbd37133f	-0.04469609
220	0x3db490f0	0.08816707
221	0xbd12ce77	-0.03584143
222	0xbd2d1188	-0.042253047
223	0xbd28da3e	-0.041223757
224	0x3dbc29ce	0.09187661
225	0xbd2c2fa6	-0.04203763
226	0xbd0151c6	-0.031572126
227	0xbd21d6a0	-0.039511323
228	0x80000282	-9e-43
229	0x3da8e8f9	0.08247561
230	0xbd27740d	-0.04088216
231	0x3dacc16a	0.08435328
232	0xbd1bffeb	-0.03808586
233	0xbd333c39	-0.043758605
234	0x00000000	0.0
235	0xbd2bc5aa	-0.041936554
236	0x00000190	5.6e-43
237	0xbd2039c9	-0.03911761
238	0xbd2ecf43	-0.04267813
239	0xbd180e36	-0.037122928
240	0xbd0c9162	-0.034318335
241	0x3dc079c0	0.09398222
242	0xbd130655	-0.03589471
243	0x3dc0c1a6	0.094119355
244	0xbd069c12	-0.032863684
245	0xbd227d0b	-0.03967003
246	0x8000020a	-7.31e-43
247	0x1448b5d7	1.0133281e-26
248	0xbd3b44a6	-0.045719765
249	0xbd237dd9	-0.03991494
250	0xbd241507	-0.040059116
251	0x3da8052e	0.08204113
252	0x3da4000d	0.08007822
253	0x3dbd1a86	0.092335746
254	0xbd4c3690	-0.049856722
255	0xbcfdc8db	-0.030979564

model.fc2.bias f4 [32]
0	0x3d30a67b	0.04312752
1	0x3d341bc9	0.04397181
2	0x3d15b5fe	0.036550514
3	0x3ddb92fd	0.10721395
4	0x3d14e943	0.03635527
5	0x3d27621e	0.040865056
6	0x3d2aa245	0.04165866
7	0x3dd4835e	0.10376619
8	0x3dcfeaab	0.10152181
9	0x3d29c586	0.04144814
10	0x3d0a0ec1	0.033705477
11	0x3d26cd2e	0.04072302
12	0x3dddc242	0.10828067
13	0x3d11f29f	0.035631772
14	0x3d232163	0.039826762
15	0x3d222303	0.03958417
16	0x3dc8e0c0	0.09808493
17	0x3d221145	0.03956725
18	0x3d30fba1	0.043208722
19	0x3d06bd92	0.032895632
20	0x3d198474	0.037479833
21	0x3deb5776	0.11491291
22	0x3d123d1e	0.035702817
23	0x3dd1b6bc	0.10239932
24	0x3d125320	0.035723805
25	0x3d159513	0.03651912
26	0x3d14d234	0.036333278
27	0x3d22625d	0.039644588
28	0x3d04de12	0.032438345
29	0x3d3f6f93	0.046737265
30	0x3d23dbdc	0.040004596
31	0x3d304b9e	0.043040864

model.fc3.weight f4 [2, 32]
0	0x3e79a51a	0.24379387
1	0x3e82e71b	0.25566944
2	0x3e7e183c	0.24813932
3	0xbeae72c0	-0.34071922
4	0x3e7fc65f	0.24978016
5	0x3e7b387e	0.24533269
6	0x3e6f6915	0.2337993
7	0xbea41996	-0.3205077
8	0xbe72bc64	-0.23704678
9	0x3e7305d7	0.23732696
10	0x3e6de96f	0.23233579
11	0x3e6d9d60	0.23204565
12	0xbeaaf12b	-0.33387122
13	0x3e7dd3b9	0.24787797
14	0x3e77420c	0.24146289
15	0x3e7ba6f4	0.24575406
16	0xbe6973dd	-0.22798105
17	0x3e792d76	0.24333748
18	0x3e7b497d	0.24539752
19	0x3e7e40ff	0.24829482
20	0x3e6fd957	0.23422752
21	0xbea54154	-0.32276404
22	0x3e735f91	0.23766924
23	0xbea60f4e	-0.32433552
24	0x3e7b36e5	0.2453266
25	0x3e68a866	0.22720489
26	0x3e6bc291	0.2302344
27	0x3e793396	0.24336085
28	0x3e6e6db9	0.23284043
29	0x3e818d5c	0.2530316
30	0x3e81851e	0.25296873
31	0x3e83fef1	0.25780442
32	0xbe78187e	-0.24228093
33	0xbe818abc	-0.25301158
34	0xbe7083a5	-0.23487718
35	0x3ea826ff	0.32842252
36	0xbe77aa71	-0.24186112
37	0xbe75536b	-0.23957603
38	0xbe84b51f	-0.25919434
39	0x3eab60dc	0.33472335
40	0x3e7326c6	0.2374526
41	0xbe7816b0	-0.24227405
42	0xbe6fa1b1	-0.23401524
43	0xbe74bfdc	-0.23901314
44	0x3ea34b69	0.3189347
45	0xbe6b4c13	-0.22978239
46	0xbe7d8246	-0.24756727
47	0xbe788046	-0.24267682
48	0x3e693b46	0.22776517
49	0xbe7fcaee	-0.24979755
50	0xbe7f0524	-0.24904305
51	0xbe7553bc	-0.23957723
52	0xbe6c28ba	-0.23062411
53	0x3ea7a267	0.3274109
54	0xbe7506f9	-0.23928441
55	0x3eaa3f65	0.3325149
56	0xbe77e5a6	-0.24208698
57	0xbe82ba92	-0.25532967
58	0xbe78be7d	-0.24291416
59	0xbe72d811	-0.23715235
60	0xbe7081e2	-0.23487046
61	0xbe7e75ef	-0.24849676
62	0xbe8180ef	-0.2529368
63	0xbe6fd033	-0.23419265

model.fc3.bias f4 [2]
0	0xbf09cebb	-0.5383107
1	0x3edf4606	0.4360811
